scTECTA_end/scTECTA_v2/78.pth (torch, 323524 bytes, 8 tensors)

conv1.bias f4 [256]
0.008038977 -0.010394515 -0.007611359 0.009482575 0.0031103469 -0.007818901 0.00515856 -0.0052197836
-0.0077161943 0.0045337114 0.006479137 -0.0064858566 -0.00734943 0.0034423175 -0.0059784595 0.0028997532
-0.00636665 0.0058837687 -0.00667068 0.010818695 0.0040138713 0.0059616505 0.0012481572 -0.0069595035
0.007469767 -0.010842582 -0.004770451 -0.0050582583 0.0017864638 0.0050359177 -0.0072123837 0.008002138
0.005855716 0.004961468 0.0048839417 -0.014093398 0.0032271536 0.0072679003 -0.008989179 0.003644615
-0.0049651996 0.007151701 0.006558137 0.010550478 0.007722872 -0.00564658 0.0061061447 0.0031373603
-0.012840278 0.007193277 0.005651001 -0.0047627287 0.005695296 0.004695401 -0.0065938393 0.00903344
-0.007414308 -0.007458967 -0.010872684 -0.0049362513 0.0033163936 -0.0075772065 0.0022965972 -0.00432971
0.0076053157 0.0056861886 0.0044137165 -0.010220683 -0.006967645 0.0072442098 0.0041607837 0.0071580242
0.008448947 0.006480117 -0.0076091886 0.0036960582 -0.005932919 -0.009130391 -0.008357212 -0.006276503
-0.0050524916 0.0067859343 -0.008751417 0.004301423 -0.007004551 -0.0049726157 0.0049878913 0.005170596
0.004427927 0.0021621236 0.0051788725 -0.0062835095 -0.006228732 -0.006048095 0.0066861883 0.0010609437
-0.007558287 0.002133261 0.0067418925 -0.0040058596 -0.00045552137 0.007095736 -0.005251469 0.0038491632
0.0067911698 -0.0037699207 -0.008483307 0.0064572673 0.006217272 0.0059063965 0.006640676 -0.00720149
-0.006469077 0.006613274 -0.030389793 0.010080148 -0.005823565 -0.006343653 0.0058187256 -0.0006853123
-0.00943123 -0.0066736224 0.0072166994 -0.008005895 0.0062578893 -0.004149231 -0.0042123743 -0.008318479
0.005562865 -0.0013181461 -0.002719409 -0.0067097577 -0.0072458675 0.011520446 -0.0073612877 0.0023094802
0.0065480005 -0.0058780042 -0.007457349 0.007259118 0.0053618588 -0.008616597 0.0061771963 0.00633717
-0.00017177682 -0.0072559845 -0.005557364 -0.0071253274 0.009119442 -0.007069437 0.007743016 0.0067652925
-0.0056364955 0.0070718485 -0.011713327 0.0056238747 0.0064609777 0.005384395 0.0077716387 -0.006465492
0.0021571468 0.0026223795 -0.0063201683 0.005444666 0.007518764 0.0038503835 0.0017749241 0.0070792544
0.0076222927 -0.0034664788 -0.006191461 0.0053219446 -0.023691528 -0.0035114673 0.009761382 0.0070967656
-0.006700549 0.0068929857 0.003984649 0.0065100878 -0.0072114365 0.008116104 -0.006223019 0.005932814
-0.0071181273 -0.008892176 -0.006941204 -0.0061789914 0.0049902177 0.0066753784 -0.0076615606 0.006839834
0.006411737 -0.007350847 -0.0127469385 0.0066098357 -0.005691721 -0.008991117 0.005507407 -0.006975356
0.006476802 0.0074644615 -0.0071485266 0.0056359502 -0.0061010025 -0.006766063 -0.0068101864 0.0029034272
0.005756154 -0.0067260275 0.0061483933 -0.007657424 0.0057702814 -0.011522176 -0.008271163 0.007654621
0.0051960563 0.006982137 -0.0031607244 0.0016689003 0.006089927 -0.006989897 -0.0066166813 -0.0066279187
0.0021536928 0.0053190235 0.0071017803 0.007695914 -0.006244557 -0.0073585436 -0.007327838 -0.007194959
0.004779939 -0.0069069252 -0.007134747 -0.007700532 -0.0073405 -0.0079435045 0.0063477037 -0.009352815
-0.009671502 -0.0070152767 -0.010387959 0.0042127594 0.006365393 -0.00956932 -0.007145638 -0.00860817
0.003608095 -0.0058859913 -0.0081148585 0.0053332564 0.00746182 0.0053335046 0.008241845 0.0074669737
00000000: eab5 033c c14d 2abc b568 f9bb cd5c 1b3c
00000010: f6d6 4b3b d91a 00bc 2309 a93b b80a abbb
00000020: 21d8 fcbb 878f 943b f14e d43b 4f87 d4bb
00000030: 7dd3 f0bb 8198 613b f4e6 c3bb c909 3e3b
00000040: 559f d0bb a1cc c03b b895 dabb e540 313c
00000050: cb86 833b f359 c33b 3599 a33a 8c0c e4bb
00000060: f2c4 f43b 16a5 31bc 7251 9cbb bfbf a5bb
00000070: c727 ea3a 5704 a53b dc55 ecbb 661b 033c
00000080: 4ee1 bf3b cf93 a23b 7909 a03b ffe7 66bc
00000090: a77e 533b 9127 ee3b 5947 13bc 7eda 6e3b
000000a0: 1db3 a2bb d158 ea3b a4e5 d63b e9db 2c3c
000000b0: 2510 fd3b f206 b9bb 0e16 c83b 2c9c 4d3b
000000c0: 0860 52bc 95b5 eb3b 082c b93b aa10 9cbb
000000d0: 9b9f ba3b e1db 993b 2211 d8bb fe00 143c
000000e0: b9f3 f2bb 5a6a f4bb 5823 32bc 47c0 a1bb
000000f0: da57 593b 374a f8bb 8282 163b 3de0 8dbb
00000100: 0336 f93b 3553 ba3b f0a0 903b a774 27bc
00000110: d850 e4bb d660 ed3b 2f57 883b dc8d ea3b
00000120: 746d 0a3c 2957 d43b 8056 f9bb 9139 723b
00000130: ef68 c2bb a397 15bc b0ec 08bc 20ab cdbb
00000140: 5f8f a5bb 8b5c de3b 1a62 0fbc f4f2 8c3b
00000150: 6f86 e5bb 53f1 a2bb 7771 a33b 1a6e a93b
00000160: 2518 913b 6ab2 0d3b 88b3 a93b e6e5 cdbb
00000170: 641a ccbb 192f c6bb d017 db3b 5d0f 8b3a
00000180: 82ab f7bb 2ece 0b3b 18eb dc3b 9643 83bb
00000190: 0bd3 eeb9 5983 e83b 8414 acbb 3e42 7c3b
000001a0: 7688 de3b c610 77bb 92fd 0abc 7c97 d33b
000001b0: 42ba cb3b 728a c13b 079a d93b 7afa ebbb
000001c0: 8dfa d3bb 2ab4 d83b 04f4 f8bc 3427 253c
000001d0: 9bd3 bebb 6bde cfbb 02ab be3b 88a6 33ba
000001e0: 7285 1abc 67ae dabb 107a ec3b 282b 03bc
000001f0: fb0e cd3b 46f6 87bb f507 8abb 3b4a 08bc
00000200: b248 b63b a5c5 acba 1d38 32bb 87dd dbbb
00000210: be6e edbb 41c0 3c3c f536 f1bb a65a 173b
00000220: 9c90 d63b 469c c0bb c75c f4bb e5dd ed3b
00000230: 88b2 af3b a12c 0dbc 146a ca3b 09a8 cf3b
00000240: fd1e 34b9 9cc3 edbb 8c1a b6bb 947b e9bb
00000250: b669 153c bca6 e7bb 20b9 fd3b 63af dd3b
00000260: 5ab2 b8bb f7ba e73b 41e9 3fbc 7b48 b83b
00000270: 9cb6 d33b 946f b03b 3ba9 fe3b 7adc d3bb
00000280: eb5e 0d3b 3adc 2b3b 6a19 cfbb 2b69 b23b
00000290: f75f f63b b756 7c3b 92a4 e83a 17f9 e73b
000002a0: 6dc4 f93b dd2d 63bb bde1 cabb b563 ae3b
000002b0: bc14 c2bc a520 66bb 34ee 1f3c fc8b e83b
000002c0: 4790 dbbb 8ede e13b a991 823b 9352 d53b
000002d0: ea4d ecbb 68f9 043c 78ea cbbb 0d68 c23b
000002e0: 2e3f e9bb 7db0 11bc 0a73 e3bb 2379 cabb
000002f0: fb84 a33b 22bd da3b d40d fbbb b020 e03b
00000300: 8c19 d23b 60df f0bb 89d8 50bc 5297 d83b
00000310: 9e81 babb 7a4f 13bc 7a77 b43b 8791 e4bb
00000320: 5a3b d43b 7198 f43b 303e eabb c7ad b83b
00000330: ebea c7bb dab5 ddbb fc27 dfbb 6d47 3e3b
00000340: 1f9e bc3b 0266 dcbb 7678 c93b 21eb fabb
00000350: a114 bd3b 82c7 3cbc c683 07bc 9dd3 fa3b
00000360: ae43 aa3b 69ca e43b 2824 4fbb 00bf da3a
00000370: 038e c73b 820b e5bb bfd0 d8bb 032f d9bb
00000380: f824 0d3b 344b ae3b 0db6 e83b 012e fc3b
00000390: 249f ccbb f01f f1bb 5c1e f0bb b1c3 ebbb
000003a0: 09a1 9c3b 7d53 e2bb 99ca e9bb bf54 fcbb
000003b0: 9488 f0bb 7925 02bc 6600 d03b 8d3c 19bc
000003c0: 3875 1ebc 68e0 e5bb 4232 2abc 300b 8a3b
000003d0: c994 d03b a3c8 1cbc f525 eabb 4809 0dbc
000003e0: ca75 6c3b 46df c0bb 2ff4 04bc 99c2 ae3b
000003f0: 4882 f43b aec4 ae3b ce08 073c 84ad f43b

conv1.lin.weight f4 [256, 50]
-0.11971484 -0.0560335 0.027063236 -0.07607413 -0.11337011 -0.13080823 -0.010864609 -0.034912165
-0.006632228 0.13488862 -0.11159886 -0.12483186 -0.088231 -0.0044028778 -0.042551003 -0.0693477
0.00016794914 0.051646106 -0.030074377 0.002006642 0.00995588 -0.048676606 -0.05615749 -0.11262195
0.11542316 0.08630504 0.12470723 -0.0038012492 0.07338569 -0.045984298 0.10852738 0.057103448
-0.02969518 0.069807954 -0.015477059 -0.016406175 0.021570593 -0.12184745 0.02585526 -0.079253264
0.032527015 -0.006701175 -0.07324173 0.06122317 -0.04619585 -0.045845672 -0.05838613 -0.0062890807
-0.043840215 0.07510566 -0.06357239 0.041394565 0.06030504 -0.09494381 0.08603633 -0.0025600034
0.04633775 -0.0744139 0.08784512 -0.07595377 -0.046590477 -0.07568733 0.08079991 -0.09075779
0.086496904 0.11211411 0.059008475 -0.12197509 0.05815916 -0.009501494 0.053063773 -0.09982395
0.07141551 0.07529032 0.019508138 -0.101381585 -0.035920896 0.008282195 0.08749874 0.11152649
0.00094760896 0.10223994 0.0013054827 -0.0044765226 -0.10251373 0.12276183 0.003377864 0.068936676
0.06799197 -0.08441735 -0.038857922 0.08311197 0.012290002 -0.012807983 0.042219467 0.0494001
-0.051758796 -0.08927164 0.010897284 0.06422988 0.11306796 0.124182 0.075305395 0.027880073
0.076810904 0.016482241 0.047331028 0.08085716 0.09140089 0.10864032 -0.10333445 -0.027844114
0.0021403935 0.054951366 -0.028284345 -0.10491255 0.1024722 -0.061138257 -0.07004287 -0.02712848
-0.11081631 -0.0054311133 0.0581809 -0.05599154 0.079077125 -0.06324418 -0.017832408 -0.017578604
-0.061877258 0.081743315 0.033014826 0.07439586 -0.07268406 -0.050253544 -0.06759274 -0.01616109
0.10087395 0.100764155 0.050877713 0.05587423 0.062044 0.091290645 0.018636746 0.0556598
-0.08571944 0.06007171 -0.06282328 0.09840844 -0.07027793 0.023652032 0.06672251 0.08236064
0.1413893 -0.13390064 0.027650332 0.09738421 -0.05378484 -0.029731607 0.067947604 0.012555579
-0.10938408 -0.11464272 0.08656177 -0.078273244 -0.008166283 -0.09041002 -0.060150795 -0.0034361281
-0.097706094 0.0604395 -0.091928884 0.10679934 0.024728697 -0.026135003 0.02768751 0.06677851
-0.07530507 -0.016230766 -0.03145717 0.091861 0.04823332 -0.010238922 -0.043125093 -0.02038096
-0.10912411 -0.10890303 -0.095081784 0.01363758 0.091930546 0.108557664 0.017142603 -0.095180795
-0.018744864 0.046023354 0.05540919 0.122146204 -0.07158777 -0.028784476 -0.00583454 -0.010192552
-0.1366219 -0.12845 0.06817087 -0.00084665214 -0.06124515 0.02030789 -0.115656696 -0.009760967
-0.012640291 -0.06694121 0.078008644 -0.08151324 -0.08629477 -0.01045353 0.03537614 -0.005016884
-0.13188675 -0.093807325 0.051814415 -0.083783545 -0.14029834 0.10630492 0.04722633 -0.07088668
-0.043582384 -0.038222693 -0.11776854 -0.14513795 -0.04103707 0.009536045 -0.059332885 -0.087233834
0.09771303 0.12909941 0.10981534 0.059882693 0.031107811 -0.08962378 0.09376144 -0.10846479
-0.016505659 0.1122362 0.030782238 0.10900742 0.059122674 0.039621618 -0.016456898 -0.11542241
0.11152607 -0.018717477 -0.11617368 -0.048171528 -0.001999048 0.09983508 -0.07230424 0.13664274
00000000: 0e2d f5bd 6283 65bd b8b3 dd3c c1cc 9bbd
00000010: 972e e8bd 98f2 05be 7901 32bc 0f00 0fbd
00000020: 2953 d9bb 3e20 0a3e f18d e4bd d9a7 ffbd
00000030: 74b2 b4bd 0446 90bb f649 2ebd 2b06 8ebd
00000040: 811b 3039 de8a 533d 8a5e f6bc de81 033b
00000050: fd1d 233c 1f61 47bd 6505 66bd 56a6 e6bd
00000060: fa62 ec3d b2c0 b03d 8166 ff3d 611e 79bb
00000070: 3d4b 963d 085a 3cbd 9a43 de3d 4ee5 693d
00000080: 4e43 f3bc 79f7 8e3d 7e93 7dbc 3e66 86bc
00000090: d0b4 b03c 288b f9bd 69ce d33c 894f a2bd
000000a0: 0c3b 053d 8895 dbbb c3ff 95bd 26c5 7a3d
000000b0: dc37 3dbd acc8 3bbd 4b26 6fbd a214 cebb
000000c0: cc91 33bd ffd0 993d 3e32 82bd 598d 293d
000000d0: 6b02 773d e671 c2bd d133 b03d bbc5 27bb
000000e0: a7cc 3d3d 5166 98bd 24e8 b33d a68d 9bbd
000000f0: a8d5 3ebd f501 9bbd 6c7a a53d 38df b9bd
00000100: 4a25 b13d 159c e53d dfb2 713d 13ce f9bd
00000110: 4d38 6e3d 27ac 1bbc 6659 593d 8070 ccbd
00000120: 4b42 923d d031 9a3d 88cf 9f3c 26a1 cfbd
00000130: ca21 13bd 0bb2 073c 8a32 b33d 0068 e43d
00000140: f668 783a 2c63 d13d bb1c ab3a cbaf 92bb
00000150: b8f2 d1bd 8e6a fb3d 275f 5d3b ac2e 8d3d
00000160: 603f 8b3d 01e3 acbd 7c29 1fbd 9c36 aa3d
00000170: 015c 493c 93d8 51bc 52ee 2c3d c257 4a3d
00000180: 0801 54bd 0dd4 b6bd 868a 323c f58a 833d
00000190: 2d90 e73d 2253 fe3d b739 9a3d c064 e43c
000001a0: 094f 9d3d c405 873c 2ede 413d 7098 a53d
000001b0: 6430 bb3d d17e de3d 03a1 d3bd 5719 e4bc
000001c0: d845 0c3b af14 613d 92b4 e7bc 64dc d6bd
000001d0: f2dc d13d 1c6c 7abd a372 8fbd 8c3c debc
000001e0: a9f3 e2bd 7bf7 b1bb 184f 6e3d 6357 65bd
000001f0: 30f3 a13d 2a86 81bd 4515 92bc 0101 90bc
00000200: 0273 7dbd 0a69 a73d 8e3a 073d db5c 983d
00000210: 61db 94bd a9d6 4dbd 106e 8abd 4364 84bc
00000220: 0097 ce3d 705d ce3d 2665 503d 60dc 643d
00000230: d921 7e3d 97f6 ba3d 17ac 983c 88fb 633d
00000240: ac8d afbd c10d 763d 7ea9 80bd 5d8a c93d
00000250: e0ed 8fbd e8c1 c13c d0a5 883d b2ac a83d
00000260: 5bc8 103e 401d 09be f382 e23c 5f71 c73d
00000270: 7e4d 5cbd b38f f3bc 1d28 8b3d eab5 4d3c
00000280: c304 e0bd cdc9 eabd 4c47 b13d b94d a0bd
00000290: e0cb 05bc e328 b9bd ae60 76bd aa30 61bb
000002a0: 221a c8bd 698f 773d 3645 bcbd 9db9 da3d
000002b0: d693 ca3c 1319 d6bc ebd0 e23c 2cc3 883d
000002c0: 8b39 9abd 62f6 84bc 3cd9 00bd 9f21 bc3d
000002d0: 4d90 453d 27c1 27bc f0a3 30bd f9f5 a6bc
000002e0: 767c dfbd 8d08 dfbd 3dba c2bd 2870 5f3c
000002f0: 1546 bc3d 7b53 de3d a56e 8c3c 26ee c2bd
00000300: d48e 99bc fc82 3c3d bff4 623d ca27 fa3d
00000310: 9c9c 92bd 6ccd ebbc ab2f bfbb a9fe 26bc
00000320: 9de6 0bbe 6688 03be 2b9d 8b3d ddf1 5dba
00000330: 32dc 7abd bb5c a63c 6bdd ecbd 77ec 1fbc
00000340: 3919 4fbc 7918 89bd ffc2 9f3d 6af0 a6bd
00000350: 50bb b0bd 4845 2bbc 92e6 103d ac64 a4bb
00000360: 520d 07be 0e1e c0bd 5a3b 543d b596 abbd
00000370: 5eaa 0fbe 65b6 d93d 6570 413d 092d 91bd
00000380: 7183 32bd 668f 1cbd a230 f1bd 0b9f 14be
00000390: 7d16 28bd 123d 1c3c 0a07 73bd a7a7 b2bd
000003a0: c51d c83d a332 043e dde6 e03d 8e47 753d
000003b0: cfd5 fe3c ac8c b7bd ff05 c03d ca22 debd
000003c0: e036 87bc 18dc e53d 082b fc3c 483f df3d
000003d0: 9e2a 723d 474a 223d 9ed0 86bc 9662 ecbd
000003e0: c867 e43d 6555 99bc 77ec edbd 824f 45bd
000003f0: 7602 03bb 5676 cc3d 3f14 94bd 13ec 0b3e

conv2.bias f4 [256]
0.003938171 0.006471606 -0.006103791 0.006957464 -0.010428774 -0.0071081794 0.006364179 0.006628108
0.0058699674 -0.006408058 -0.007829752 -0.007307228 0.007034502 0.007352234 -0.006148896 -0.0020972516
0.0030872293 0.010678662 0.005173269 -0.0072358004 -0.0057730554 0.0065398635 -0.008266579 -0.0064140153
-0.006666458 0.0070535876 0.006448604 -0.006111195 -0.0063385465 -0.005956437 -0.0073477603 0.006009237
-0.0069542113 -0.0061701667 -0.007089253 -0.007597929 0.0007849669 -0.006338906 0.00629561 -0.007550788
-0.006541194 -0.006197616 -0.0073363096 -0.005868856 0.0013167728 -0.0065594157 0.0064607444 -0.0070556668
-0.0073983637 0.0055487305 -0.0065773125 -0.0061325524 0.0042809597 -0.0075462745 -0.0070772395 0.007144948
0.0056630885 0.0056273392 -0.0068866364 -0.007123232 0.00092457305 -0.007432355 0.004228191 0.007768963
-0.0068218126 -0.0054301363 -0.006951128 0.006392182 -0.00699389 -0.0073038675 0.0061095855 0.0066048307
0.0027772475 -0.0069462718 -0.0063024657 -0.005877477 -0.0070996257 0.006323315 0.0064700735 -0.004186995
0.006776858 0.0056864317 -0.006474142 -0.006423241 0.0069813873 -0.0063961223 0.0065639256 -0.0054489207
0.0069061685 -0.00038754448 0.0063315784 0.0062422287 -0.007100667 -0.008600377 -0.0067061856 -0.0070497678
0.006085604 -0.0049764947 -0.0070362985 0.0024230396 -0.0056418693 0.0067914166 0.007766303 0.004667023
-0.0066361604 -0.0067406693 0.006447418 0.0066896467 -0.008887252 0.006811017 -0.0050335606 0.0042541474
-0.0010474696 0.006598552 -0.0072548753 -0.0075207553 0.0051590214 -0.0038095897 0.0052626054 -0.0059021674
0.006765568 0.0045013884 -0.007365999 -0.0067632673 -0.0041845515 -0.004886729 -0.0068756724 -0.007616886
0.005697897 0.0063165943 -0.0069997646 0.0063959653 0.0070234523 -0.005604067 -0.006497388 -0.00683697
0.007223258 -0.007287327 0.005206135 0.0057951566 -0.001153719 0.006362661 0.0019764467 0.0063050096
-0.007945116 -0.0065283305 0.0052495827 0.0034280221 -0.0022925956 -0.004460754 -0.004359191 0.0066258805
-0.00034688265 -0.004472968 -0.006096847 -0.0071491958 -0.00744252 0.008324885 -0.0063081514 0.0068001514
-0.007110901 0.006687602 -0.00622549 0.00627723 0.007103478 -0.0052874936 -0.0069087157 -0.0061818603
0.006160028 0.0063813026 -0.006839915 0.0061667683 -0.0063260305 0.005124209 -0.0044737183 0.007000125
-0.006134207 0.004778003 0.0066252197 -0.0066669774 0.00645785 -0.0061752195 -0.0045167045 0.0017916445
0.0031159632 -0.0065045855 -0.0063553457 -0.0073716547 0.0035674565 -0.0062449384 0.0033252845 0.0072193067
-0.0071331947 -0.007212718 0.005186559 0.0066143204 0.005165287 -0.0075494903 0.005551718 0.006474032
-0.0038712686 0.0058769956 0.006994624 -0.007503995 0.006449475 0.006200708 0.0060269623 0.008662481
-0.004510377 0.0065369387 0.005341859 0.0060290126 0.005790397 -0.0059113046 0.0060361847 -0.0070213936
0.0071246126 0.0063914703 -0.007755384 -0.0070614303 0.0006861106 0.009475592 0.007971939 -0.007522615
0.00467385 -0.0072935754 -0.005514423 -0.0050868397 -0.0070871916 -0.007179875 0.004711564 0.006474892
0.007817471 0.0066486946 -0.006701353 -0.007447645 -0.0066404864 -0.0089489855 -0.006294221 0.0071223797
0.0057293884 -0.00750186 -0.0075852056 -0.0065968744 0.0063234987 0.0065205744 0.0066544977 -0.0060667535
0.0034908538 -0.0064696237 -0.0071307593 -0.006915165 0.0060758246 0.0069203596 0.006833798 0.003610884
00000000: c60b 813b c40f d43b 4f02 c8bb 70fb e33b
00000010: 73dd 2abc bbeb e8bb 9a8a d03b 9a30 d93b
00000020: db58 c03b b0fa d1bb 5c48 00bc 7971 efbb
00000030: ae81 e63b 02eb f03b ae7c c9bb 0b72 09bb
00000040: 1d53 4a3b 8ef5 2e3c 8784 a93b 4b1a edbb
00000050: e62b bdbb 5a4c d63b 8c70 07bc a92c d2bb
00000060: 4e72 dabb c821 e73b d04e d33b 6b40 c8bb
00000070: 95b3 cfbb 372e c3bb 7bc5 f0bb 22e9 c43b
00000080: 27e0 e3bb 1c2f cabb f74c e8bb 0cf8 f8bb
00000090: 3dc6 4d3a 99b6 cfbb 684b ce3b 9a6c f7bb
000000a0: 8357 d6bb 5f15 cbbb 6d65 f0bb 884f c0bb
000000b0: 9097 ac3a 5ef0 d6bb a7b4 d33b 3933 e7bb
000000c0: f96d f2bb 20d2 b53b 7f86 d7bb 94f3 c8bb
000000d0: 4b47 8c3b bd46 f7bb 30e8 e7bb 2b20 ea3b
000000e0: 6e91 b93b 8b65 b83b 4ba9 e1bb 006a e9bb
000000f0: 0c5f 723a 1d8b f3bb a38c 8a3b c992 fe3b
00000100: 8389 dfbb 49ef b1bb 4ac6 e3bb 8275 d13b
00000110: 002d e5bb 4855 efbb eb32 c83b 566d d83b
00000120: 7b02 363b 8d9d e3bb ea84 cebb da97 c0bb
00000130: faa3 e8bb d033 cf3b e902 d43b 0f33 89bb
00000140: 6810 de3b 3f55 ba3b 0a25 d4bb 0d7a d2bb
00000150: 1fc4 e43b 9096 d1bb 3316 d73b dc8c b2bb
00000160: 244d e23b 572f cbb9 2179 cf3b 9c8b cc3b
00000170: b6ac e8bb 98e8 0cbc 90bf dbbb bd01 e7bb
00000180: bf69 c73b dd11 a3bb c090 e6bb dccb 1e3b
00000190: 6edf b8bb 888a de3b 797c fe3b d4ed 983b
000001a0: 2674 d9bb d5e0 dcbb dd44 d33b d334 db3b
000001b0: d69b 11bc f42e df3b 91f0 a4bb 6066 8b3b
000001c0: 3f4b 89ba ab38 d83b 4eba edbb ab70 f6bb
000001d0: 020d a93b 4faa 79bb ef71 ac3b f866 c1bb
000001e0: b3b1 dd3b 6280 933b 7a5e f1bb 669e ddbb
000001f0: 901e 89bb db20 a0bb 524d e1bb 1297 f9bb
00000200: 6db5 ba3b 6ffb ce3b 485e e5bb 3f95 d13b
00000210: fd24 e63b 52a2 b7bb 0ae8 d4bb a908 e0bb
00000220: 14b1 ec3b 88ca eebb 3a98 aa3b 4ce5 bd3b
00000230: 6338 97ba de7d d03b 4687 013b 419a ce3b
00000240: 3b2c 02bc 9beb d5bb b104 ac3b aba8 603b
00000250: 5f3f 16bb 842b 92bb 8bd7 8ebb ea1d d93b
00000260: cddd b5b9 fa91 92bb 0fc8 c7bb cd43 eabb
00000270: 62e0 f3bb 1965 083c 9cb4 cebb ced3 de3b
00000280: 9002 e9bb ac23 db3b 32ff cbbb 39b1 cd3b
00000290: 4bc4 e83b b642 adbb 8262 e2bb 3491 cabb
000002a0: 0fda c93b 3f1a d13b 5e21 e0bb 9a12 ca3b
000002b0: 974a cfbb fbe8 a73b 4598 92bb 4e61 e53b
000002c0: 7501 c9bb cb90 9c3b 5f18 d93b a976 dabb
000002d0: 5f9c d33b 7f59 cabb dd00 94bb 9dd5 ea3a
000002e0: 3035 4c3b 6b24 d5bb 8140 d0bb ec8d f1bb
000002f0: fdcb 693b 57a2 ccbb 04ed 593b ef8f ec3b
00000300: 93bd e9bb aa58 ecbb 03f4 a93b f1bc d83b
00000310: 9141 a93b b761 f7bb 30eb b53b 1e24 d43b
00000320: 1cb5 7dbb d093 c03b 2933 e53b 13e4 f5bb
00000330: 1e56 d33b 4f2f cb3b d37d c53b 14ed 0d3c
00000340: c9cb 93bb d133 d63b c30a af3b 068f c53b
00000350: 5fbd bd3b 9eb3 c1bb 30cb c53b b813 e6bb
00000360: 9575 e93b 8a6f d13b e020 febb 9263 e7bb
00000370: 1adc 333a 833f 1b3c bc9c 023c 4580 f6bb
00000380: 1827 993b f2fe eebb 55b2 b4bb 81af a6bb
00000390: ac3b e8bb 2845 ebbb 7763 9a3b 552b d43b
000003a0: da14 003c 4bdd d93b 0697 dbbb 600b f4bb
000003b0: 7098 d9bb c49e 12bc c13f cebb da62 e93b
000003c0: 98bd bb3b 2ad2 f5bb 518d f8bb 982a d8bb
000003d0: 5a35 cf3b 8baa d53b f90d da3b 9ecb c6bb
000003e0: cfc6 643b 23ff d3bb 25a9 e9bb 9c98 e2bb
000003f0: b617 c73b 2fc4 e23b 0dee df3b 95a4 6c3b

conv2.lin.weight f4 [256, 256]
-0.05456388 0.031406466 -0.028894672 0.03945669 -0.0046306434 -0.027257796 0.0725256 -0.06759444
0.027882282 0.049527083 -0.04021857 0.008679754 -0.049954128 0.0322605 0.09692328 0.06215319
0.1016596 0.10021937 0.037618253 -0.065805934 -0.018884365 -0.087025516 -0.07433894 0.09170098
0.017778434 0.040839184 -0.10017976 0.022387156 0.07178127 0.008337134 -0.009937528 0.027734939
-0.0062045236 0.081520736 0.062045727 -0.03299324 -0.049513787 -0.04865915 -0.012806756 -0.007898735
0.062766545 0.03889318 0.054417524 -0.08399529 0.07858493 0.09475894 0.04455837 0.0648818
0.017792996 -0.09270511 -0.043584004 0.013600133 -0.031067647 0.015940694 0.015079423 0.047504097
-0.023926267 0.011355151 0.074131705 0.02508578 0.058102023 -0.07729182 -0.073928155 -0.04221071
0.010025743 0.013303685 0.036501635 -0.036280677 0.10413533 -0.016126031 -0.017293354 0.07947454
-0.04052211 0.010606158 -0.02230847 0.031563338 -0.06881755 -0.08554257 -0.05251918 -0.04105783
-0.02453593 -0.04370694 0.09532176 -0.010021554 0.104327224 -0.004701338 0.0044785356 -0.04174271
0.055225547 0.030550696 -0.037131235 0.004459758 -0.0789735 -0.0032339834 -0.036846936 -0.09543966
0.06296543 -0.0012030457 0.027590444 -0.020869043 0.0030761873 0.025684055 0.022663096 -0.02801899
-0.09409795 0.03771953 0.0006715415 0.090811774 0.02740113 0.042217705 0.009335411 -0.00025595998
0.09782811 -0.024592755 -0.08361045 0.06667302 -0.007056105 -0.05665819 -0.03084928 -0.08864816
0.045317672 -0.05442606 -0.07136154 0.06403381 -0.03465001 -0.10021325 0.07792105 -0.076874994
-0.0931017 -0.01054129 -0.039480705 -0.04358332 0.0138766235 -0.013937305 0.008216946 0.02080096
-0.04622663 -0.0031811378 -0.04652052 -0.08270431 -0.075607866 -0.06350624 0.0933947 -0.09098474
0.06633939 0.041006334 -0.0688954 -0.04499198 0.098902345 0.032522712 0.00437339 0.010852837
0.024355005 -3.877799e-05 0.02042425 -0.08475341 -0.07842154 -0.09123799 -0.067419715 -0.07769809
-0.018020963 0.094356626 0.084520526 -0.0810231 -0.017044453 0.04439753 -0.0386591 -0.050006863
0.015259386 0.039691553 -0.10556931 -0.0696772 -0.080502704 -0.03649049 0.06431616 0.098620646
0.0875259 0.0882669 -0.066277765 0.01769346 -0.03346106 0.0026121875 0.045971435 -0.0027960096
0.025561754 0.064071104 0.11254399 -0.001860126 0.007063783 0.04837791 -0.08032237 -0.04602442
0.07235475 -0.046111293 0.016952608 0.050729237 0.074351534 0.016166782 -0.04239304 -0.027002048
0.051777348 0.018903958 -0.09612563 0.032641754 0.08968269 -0.08106594 -0.014302994 -0.08109697
-0.08984897 0.016998067 0.033668336 0.031713158 0.0025561366 -0.08027926 -0.09125247 -0.065493554
0.06531937 0.053172983 -0.029704625 -0.09176647 -0.074237965 0.09659432 -0.08243037 0.072233565
0.08373474 -0.05578379 -0.0013637709 0.07210012 0.046226304 0.09930875 0.051335447 0.11077523
0.028067244 0.011775566 0.05819114 -0.02762895 0.015567857 0.0672964 -0.05018706 0.055368826
0.08178987 -0.032075446 -0.09780417 0.05604235 0.008151869 0.02246229 0.023784544 0.029824844
0.0694304 -0.031927597 -0.08384443 0.015342012 0.05721219 0.033024892 0.0023458288 -0.056478497
00000000: 607e 5fbd 11a4 003d 85b4 ecbc 579d 213d
00000010: a7bc 97bb be4b dfbc 4d88 943d f46e 8abd
00000020: 6269 e43c e9dc 4a3d 3abc 24bd 8735 0e3c
00000030: b39c 4cbd 9623 043d b67f c63d 5894 7e3d
00000040: e932 d03d d03f cd3d 9915 1a3d 43c5 86bd
00000050: 62b3 9abc 6f3a b2bd 043f 98bd b9cd bb3d
00000060: 14a4 913c fd46 273d 0c2b cdbd 4565 b73c
00000070: 0f02 933d 7998 083c 03d1 22bc 6234 e33c
00000080: 514f cbbb 58f4 a63d a923 7e3d eb23 07bd
00000090: f8ce 4abd d14e 47bd 6ed3 51bc b269 01bc
000000a0: bf8b 803d 754e 1f3d e9e4 5e3d b905 acbd
000000b0: 23f1 a03d fa10 c23d d682 363d c0e0 843d
000000c0: 9ec2 913c 2ddc bdbd 2485 32bd 18d3 5e3c
000000d0: 9481 febc 0f96 823c af0f 773c a893 423d
000000e0: 0501 c4bc f50a 3a3c 5dd2 973d b280 cd3c
000000f0: 63fc 6d3d 2c4b 9ebd a567 97bd 23e5 2cbd
00000100: 0443 243c b3f7 593c bd82 153d 0c9b 14bd
00000110: e744 d53d bd1a 84bc cbaa 8dbc 8cc3 a23d
00000120: 83fa 25bd 73c5 2d3c 41c0 b6bc 8f48 013d
00000130: 37f0 8cbd f130 afbd 5a1e 57bd 412c 28bd
00000140: 93ff c8bc 0c06 33bd 0e38 c33d 7231 24bc
00000150: 83a9 d53d ae0d 9abb aec0 923b 67fa 2abd
00000160: 2f34 623d 7445 fa3c ec16 18bd 2923 923b
00000170: dcbc a1bd 3df1 53bb d0ec 16bd de75 c3bd
00000180: 05f4 803d 84af 9dba 5b05 e23c 8ef5 aabc
00000190: dc99 493b 5e67 d23c f5a7 b93c 1588 e5bc
000001a0: 6db6 c0bd cb7f 1a3d 630a 303a 86fb b93d
000001b0: 5678 e03c 79ec 2c3d 8df3 183c 5e32 86b9
000001c0: 1b5a c83d bf76 c9bc f53b abbd dd8b 883d
000001d0: e636 e7bb 6b12 68bd a1b7 fcbc 2b8d b5bd
000001e0: 069f 393d dced 5ebd 0026 92bd 2824 833d
000001f0: 2bed 0dbd 9b3c cdbd 1295 9f3d a370 9dbd
00000200: 1bac bebd 60b5 2cbc 85b6 21bd 6c84 32bd
00000210: c75a 633c 4b59 64bc 5fa0 063c c666 aa3c
00000220: 2358 3dbd a37a 50bb 4d8c 3ebd e160 a9bd
00000230: 4cd8 9abd 8f0f 82bd b845 bf3d 3556 babd
00000240: f2dc 873d 42f6 273d 0819 8dbd 8349 38bd
00000250: 508d ca3d 8936 053d a84e 8f3b 19d0 313c
00000260: 2684 c73c 8da5 22b8 c250 a73c 3293 adbd
00000270: 799b a0bd fcda babd 5913 8abd 2d20 9fbd
00000280: b3a0 93bc 0c3e c13d 1919 ad3d 70ef a5bd
00000290: cfa0 8bbc 2fda 353d 0159 1ebd ffd3 4cbd
000002a0: 8102 7a3c 9c93 223d b934 d8bd ebb2 8ebd
000002b0: 9ade a4bd 0d77 15bd 31b8 833d 9ff9 c93d
000002c0: c740 b33d 47c5 b43d a3bc 87bd e0f1 903c
000002d0: 770e 09bd 3c31 2b3b 8b4c 3c3d 423d 37bb
000002e0: e266 d13c b637 833d 777d e63d 79cf f3ba
000002f0: 4e77 e73b ea27 463d 0e80 a4bd 1a84 3cbd
00000300: ba2e 943d 32df 3cbd 32e0 8a3c 76c9 4f3d
00000310: 9e45 983d 3370 843c 53a4 2dbd 6633 ddbc
00000320: 7c14 543d 79dc 9a3c 84dd c4bd 5cb3 053d
00000330: 8fab b73d e605 a6bd 1b57 6abc 2b16 a6bd
00000340: bd02 b8bd 883f 8b3c cfe7 093d a8e5 013d
00000350: db84 273b 7469 a4bd 93e2 babd 7c21 86bd
00000360: 29c6 853d eacb 593d 1d57 f3bc 0ff0 bbbd
00000370: 130a 98bd 3ed3 c53d 41d1 a8bd 31ef 933d
00000380: 1f7d ab3d 8b7d 64bd 8fc0 b2ba 3aa9 933d
00000390: cb57 3d3d 6362 cb3d 1e45 523d 20de e23d
000003a0: 47ed e53c 4eee 403c d559 6e3d 1c56 e2bc
000003b0: 5310 7f3c b2d2 893d f290 4dbd 6cca 623d
000003c0: 7381 a73d 8b61 03bd 8d4d c8bd aa8c 653d
000003d0: 6b8f 053c d602 b83c ced7 c23c 3b53 f43c
000003e0: 8731 8e3d 83c6 02bd a1b6 abbd 105d 7b3c
000003f0: 5457 6a3d 1c45 073d 7abc 193b ff55 67bd

cls.bias f4 [3]
0.006577494 -0.0067400136 -0.0064511322
00000000: 0588 d73b 55db dcbb 0564 d3bb

cls.lin.weight f4 [3, 256]
-0.004273453 0.11810268 0.014496087 0.078190796 -0.06351412 0.050511114 0.13343847 0.00026684479
0.05521007 0.015712123 -0.13333349 -0.10209322 0.072766855 -0.01803886 0.0051454823 -0.017800098
0.03735117 0.000583998 0.066358745 -0.13898052 -0.00907226 0.09631634 -0.06342409 -0.007575995
-0.031899173 0.11451974 0.1315302 -0.14354713 -0.04229727 0.100844935 -0.07722844 0.13916284
-0.035446078 0.010275217 -0.09604756 -0.043588232 -0.036694746 -0.038276277 0.10626036 -0.04337368
-0.10779891 -0.049322717 -0.009759818 0.01916653 -0.088227086 0.060882915 0.11942079 -0.036087297
-0.07674855 0.1475882 -0.048055016 -0.017752439 0.057870213 -0.03205939 -0.06484469 0.06534006
-0.08197526 -0.020694893 -0.118632846 0.011885714 0.14214586 0.012679631 0.09307788 0.12961042
-0.13271402 -0.13584535 -0.07700422 0.12720256 -0.0802974 -0.0044325613 0.1541774 -0.027745172
-0.105475046 -0.1007895 -0.04987717 -0.06481123 0.07663194 0.035284787 0.14006735 -0.06239819
0.113930926 0.039250888 -0.056101143 -0.061097696 0.09243172 0.011305544 0.10623243 -0.09411458
0.057238102 -0.07403241 0.075025216 0.078050904 -0.08996292 0.01350565 -0.119815215 0.013573595
0.15374117 -0.09004492 -0.13630973 0.058496326 -0.10998329 0.056135867 -0.01711343 0.06479122
-0.13191342 -0.05150063 0.08025969 0.013484234 -0.043181222 0.12091592 -0.09432011 0.10835787
-0.008217097 0.06635406 -0.060728166 -0.08521936 0.008221087 -0.13101082 0.12302991 -0.007810871
0.103341565 0.13007048 0.013218342 -0.11828762 -0.116232604 -0.13932495 -0.12401081 -0.056499936
-0.0397238 0.04007033 -0.07168452 0.12861784 0.1416715 -0.12286188 -0.13303556 0.04935526
0.13912046 0.0041945684 0.06426889 0.1413183 0.032969713 0.12615815 0.0020269619 -0.027448492
0.061910715 -0.021725647 0.067068286 0.116322234 -0.0032281657 -0.0776788 0.03902313 -0.046354663
-0.014421979 0.027903648 0.0057232566 -0.09761371 -0.14711727 -0.095860526 -0.06713253 0.06338399
-0.06591641 0.15754867 -0.0007594333 -0.009193582 0.04334315 -0.071435824 -0.05661873 -0.1263853
0.14396499 0.14165072 -0.085743815 0.14332771 0.018793896 -0.030490115 -0.12164628 0.14270854
0.017385036 0.14126796 0.13427985 -0.07948996 0.06092066 -0.0031946437 -0.092998385 -0.080951795
0.025696583 -0.076241195 -0.05605354 -0.13334274 -0.009944912 0.034151662 0.058429636 0.15455408
-0.087257996 -0.04105418 -0.056242354 0.04719539 0.07666147 -0.13045436 0.1397548 0.1325389
-0.012335127 0.13064095 0.0915943 0.07768504 0.0265168 0.0743533 0.14476302 0.054289985
-0.004471552 0.10798787 -0.03319464 0.12805608 0.10957368 0.013504885 0.14876963 -0.013990011
0.14121358 0.13510387 -0.062443413 -0.13708928 0.10578232 0.08234428 0.10772047 -0.06445838
0.028369384 -0.073031865 -0.09713736 -0.117076844 0.0040350403 0.062054254 0.10635134 0.14882834
0.052939888 -0.009285379 -0.13090798 -0.019895302 -0.14424022 -0.08088949 -0.09403081 0.041099798
0.044284496 0.014402502 -0.08427461 -0.016398942 0.020422889 0.053995818 -0.0039848667 -0.00399928
0.07288287 -0.067214 -0.12523238 -0.0395439 0.1529508 0.09997545 0.11819764 0.06689128
00000000: 5208 8cbb d1df f13d ff80 6d3c 7f22 a03d
00000010: b113 82bd bee4 4e3d 18a4 083e 4de7 8b39
00000020: f423 623d b6b6 803c 9388 08be 4016 d1bd
00000030: ca06 953d 3bc6 93bc 6f9b a83b 83d1 91bc
00000040: 8afd 183d 7117 193a 18e7 873d e950 0ebe
00000050: d1a3 14bc 8041 c53d 7de4 81bd 0d40 f8bb
00000060: b5a8 02bd 5389 ea3d daaf 063e 05fe 12be
00000070: e73f 2dbd ca87 ce3d f229 9ebd b480 0e3e
00000080: e82f 11bd 6259 283c 95b4 c4bd 9389 32bd
00000090: 3b4d 16bd 96c7 1cbd 089f d93d 9aa8 31bd
000000a0: adc5 dcbd 9e06 4abd a5e7 1fbc 2003 9d3c
000000b0: 67b0 b4bd 5d60 793d e392 f43d 46d0 13bd
000000c0: 582e 9dbd 5c21 173e 56d5 44bd 906d 91bc
000000d0: 5109 6d3d b550 03bd 4bcd 84bd 02d1 853d
000000e0: a5e2 a7bd 5688 a9bc c7f5 f2bd 4cbc 423c
000000f0: af8e 113e 3abe 4f3c 9e9f be3d 98b8 043e
00000100: 2fe6 07be 0b1b 0bbe 63b4 9dbd 6341 023e
00000110: f772 a4bd 053f 91bb aee0 1d3e d849 e3bc
00000120: 4d03 d8bd ba6a cebd 014c 4cbd c0bb 84bd
00000130: 35f1 9c3d c886 103d d16d 0f3e 3f95 7fbd
00000140: 9e54 e93d 8ac5 203d 50ca 65bd 9441 7abd
00000150: d74c bd3d e33a 393c 6390 d93d 25bf c0bd
00000160: 8072 6a3d 4e9e 97bd d2a6 993d 27d9 9f3d
00000170: 7b3e b8bd cd46 5d3c ae61 f5bd c963 5e3c
00000180: 536e 1d3e 7969 b8bd c794 0bbe d899 6f3d
00000190: eb3e e1bd b9ee 653d 7731 8cbc 42b1 843d
000001a0: 5014 07be 53f2 52bd 315f a43d faec 5c3c
000001b0: cbde 30bd c4a2 f73d e72a c1bd bbea dd3d
000001c0: 01a1 06bc a3e4 873d 19be 78bd 7d87 aebd
000001d0: bdb1 063c b327 06be 1bf7 fb3d 56f2 ffbb
000001e0: bea4 d33d 3231 053e bf91 583c c840 f2bd
000001f0: 5c0b eebd 33ab 0ebe 61f9 fdbd 7a6c 67bd
00000200: 6cb5 22bd c920 243d 55cf 92bd 65b4 033e
00000210: 5512 113e 029f fbbd 793a 08be be28 4a3d
00000220: 9875 0e3e 9772 893b 689f 833d bfb5 103e
00000230: 400b 073d 9a2f 013e c7d6 043b a9db e0bc
00000240: 1796 7d3d fcf9 b1bc 195b 893d 5a3a ee3d
00000250: a28f 53bb 1016 9fbd b8d6 1f3d 63de 3dbd
00000260: 2a4a 6cbc 3196 e43c 288a bb3b b2e9 c7bd
00000270: e9a5 16be 8652 c4bd c87c 89bd 77cf 813d
00000280: 2fff 86bd 7054 213e b514 47ba aea0 16bc
00000290: 9688 313d f24c 92bd 0be9 67bd 266b 01be
000002a0: 8f6b 133e e30c 113e 749a afbd 80c4 123e
000002b0: a8f5 993c 68c6 f9bc af21 f9bd 3022 123e
000002c0: 106b 8e3c 8ca8 103e a880 093e a2cb a2bd
000002d0: f187 793d 3a5d 51bb f075 bebd 0eca a5bd
000002e0: a481 d23c 5824 9cbd 6698 65bd 008b 08be
000002f0: fcef 22bc 9de2 0b3d ea53 6f3d 6d43 1e3e
00000300: 52b4 b2bd 6e28 28bd 625e 66bd f44f 413d
00000310: b000 9d3d d495 05be e21b 0f3e 47b8 073e
00000320: 4619 4abc bec6 053e cb95 bb3d 5619 9f3d
00000330: c339 d93c 8b46 983d c23c 143e 2d5f 5e3d
00000340: 1986 92bb bf28 dd3d 1af7 07bd 2221 033e
00000350: 2a68 e03d 9843 5d3c 1157 183e 5c36 65bc
00000360: 4b9a 103e ab58 0a3e aac4 7fbd 2261 0cbe
00000370: 67a4 d83d 1ea4 a83d 8d9c dc3d c102 84bd
00000380: e966 e83c bb91 95bd f4ef c6bd fcc5 efbd
00000390: 5f38 843b 9a2c 7e3d bbce d93d 7566 183e
000003a0: 7fd7 583d b421 18bc be0c 06be 79fb a2bc
000003b0: b5b3 13be 64a9 a5bd 3a93 c0bd 4358 283d
000003c0: a963 353d 79f8 6b3c 2b98 acbd 1357 86bc
000003d0: e74d a73c b82a 5d3d 7c93 82bb 640c 83bb
000003e0: 9d43 953d 7ea7 89bd eb3c 00be c9f8 21bd
000003f0: 229f 1c3e eebf cc3d 9b11 f23d 4cfe 883d

domain_discriminator.weight f4 [2, 256]
-0.050485708 -0.043999773 0.07557361 -0.0016969887 0.07223889 -0.022384277 -0.019249268 0.06918017
0.026715519 0.012654265 0.070413925 0.021447832 -0.0016751362 -0.09666707 0.050157476 0.04049744
0.046238936 -0.037768345 0.0025441232 0.033000268 0.00985882 -0.08495991 0.0151467975 -0.00060382887
0.08177444 0.091542415 0.11402396 0.058757234 0.04324516 0.07820143 0.097038455 0.04105262
0.035162 -0.018781587 -0.004557964 0.10379241 -0.041522823 0.05023418 0.053493947 -0.022311945
0.036151323 0.0038363338 0.032546036 -0.008500927 -0.02025252 -0.0050793015 0.025224177 0.043650344
0.09764516 -0.02888723 0.040377136 -0.028751718 0.011447046 0.04877014 -0.028922392 -0.04104727
-0.00030299905 0.05843772 0.08529083 0.0028338274 0.039648704 -0.008307207 0.07929446 0.014486853
0.014307034 0.060081083 0.031410053 0.06558014 0.046654727 0.011108036 -0.0045338403 -0.038956415
-0.05122759 0.009843357 0.03406265 -0.04294585 -0.015541288 0.042652182 -0.065599136 -0.036745712
-0.03382873 0.057484023 0.027050674 0.019819913 0.008600102 -0.01770219 -0.113163404 -0.05797651
-0.07283258 0.08995822 0.042100966 0.059092857 0.031848993 -0.0016860665 -0.040012274 0.043454506
-0.046973456 0.08108723 0.04438539 0.012783295 -0.0074232593 0.008753693 0.076232195 0.017416837
0.05965736 0.040492687 -0.057157204 -0.065723345 0.075278915 0.0049542836 0.022273501 0.09947123
-0.031819522 0.024605114 0.058410082 -0.005440032 -0.036395434 0.015692513 0.017333623 -0.016253281
0.02294925 0.060188122 0.020472419 0.014274517 0.07699611 -0.041590504 -0.041576013 -0.022829615
0.10347661 -0.034122225 0.0037800274 0.014471562 0.090401106 0.00081590447 0.079662144 0.06836162
-0.03291206 0.038441725 0.07534923 -0.02364859 -0.007050043 0.013569124 -0.015122381 -0.038755134
-0.0035950823 0.0051507233 -0.05660094 0.036543068 0.022287741 0.019915432 0.049277 -0.0252586
0.10069789 0.015199482 0.06009776 0.052383937 0.05541007 0.021921664 -0.0016157497 0.02029577
0.036321234 0.016523626 0.016818583 -0.0021211798 0.06014741 -0.018238056 0.05168149 -0.03843895
0.02249305 0.05806463 0.022056146 -0.042669464 0.052737184 -0.07292761 0.0064025195 -0.0774506
0.0047721956 -0.08504455 -0.007995831 0.04042837 -0.004975295 0.010603169 0.08894664 0.028835945
0.105567805 0.049712542 0.016855864 0.0026676927 0.030741325 -0.06227512 0.044398174 0.02553873
0.0043355986 -0.038948946 -0.008720912 0.01621658 0.11763863 0.00017608637 0.045180593 0.03317818
0.052912228 0.00876664 -0.08628303 0.044842843 -0.01408214 -0.025133591 0.07255716 0.017619722
0.05557354 -0.0150133595 0.006334132 -0.013872092 0.05596033 -0.03949268 0.11036338 0.028750546
-0.044681408 0.06314077 0.04782223 0.030709295 0.10185288 -0.039119557 -0.010186103 0.061643805
0.067232035 0.08132376 0.0026694962 -0.09384335 -0.035292372 -0.019939912 -0.0063394317 -0.04844212
0.085153535 0.017542284 0.06177373 0.06551209 0.017598314 -0.024998378 0.057206642 -0.018099178
-0.005139947 0.12485068 0.025423257 0.02009311 0.1114404 0.02118541 -0.06213686 0.09951622
-0.03176275 0.01588627 0.06362615 0.048373915 0.07098969 0.046937533 0.05491111 0.08514533
00000000: 1aca 4ebd 1b39 34bd 56c6 9a3d 7e6d deba
00000010: fcf1 933d 3b5f b7bc a4b0 9dbc 55ae 8d3d
00000020: 81da da3c d653 4f3c 2d35 903d 5db3 af3c
00000030: 3e90 dbba 63f9 c5bd ed71 4d3d a5e0 253d
00000040: 0a65 3d3d fbb2 1abd 4ebb 263b 4a2b 073d
00000050: e386 213c 76ff adbd 462a 783c 454a 1eba
00000060: 5c79 a73d 977a bb3d 6585 e93d 6dab 703d
00000070: d621 313d 1228 a03d 19bc c63d cb26 283d
00000080: 0806 103d d8db 99bc f95a 95bb 1d91 d43d
00000090: d613 2abd 5bc2 4d3d 781c 5b3d 8ac7 b6bc
000000a0: 6913 143d 006b 7b3b fe4e 053d 7947 0bbc
000000b0: 9de8 a5bc 4570 a6bb efa2 ce3c b4ca 323d
000000c0: 30fa c73d eaa4 ecbc 7f62 253d b988 ebbc
000000d0: 648c 3b3c 33c3 473d a7ee ecbc 2f21 28bd
000000e0: d8db 9eb9 645c 6f3d f5ac ae3d bcb7 393b
000000f0: ae66 223d f41a 08bc 2265 a23d 445a 6d3c
00000100: 0d68 6a3c 9517 763d d4a7 003d e14e 863d
00000110: 0719 3f3d 7bfe 353c 9c90 94bb c390 1fbd
00000120: 05d4 51bd 0846 213c 4785 0b3d fde7 2fbd
00000130: e3a0 7ebc 0eb4 2e3d d758 86bd ac82 16bd
00000140: ff8f 0abd 5e74 6b3d 6099 dd3c 5f5d a23c
00000150: 71e7 0c3c 2f04 91bc 37c2 e7bd c778 6dbd
00000160: 3f29 95bd 043c b83d 1072 2c3d 5a0b 723d
00000170: 1774 023d 01ff dcba e9e3 23bd 5afd 313d
00000180: 3d67 40bd 1011 a63d 74cd 353d 0671 513c
00000190: d03e f3bb a66b 0f3c a01f 9c3d c1ad 8e3c
000001a0: 475b 743d a9db 253d ac1d 6abd f699 86bd
000001b0: d52b 9a3d 8b57 a23b eb76 b63c 92b7 cb3d
000001c0: 3055 02bd aa90 c93c 693f 6f3d 4c42 b2bb
000001d0: 6113 15bd 968d 803c 3eff 8d3c 9a25 85bc
000001e0: 1100 bc3c d287 763d c6b5 a73c aadf 693c
000001f0: 23b0 9d3d ce5a 2abd 9c4b 2abd 2c05 bbbc
00000200: 8beb d33d bfc3 0bbd 56ba 773b 211a 6d3c
00000210: 3724 b93d 6ce2 553a e825 a33d 2d01 8c3d
00000220: ccce 06bd 1275 1d3d b250 9a3d b0ba c1bc
00000230: 0c04 e7bb 0851 5e3c ddc3 77bc b4bd 1ebd
00000240: 799b 6bbb 66c7 a83b 63d6 67bd 2fae 153d
00000250: c894 b63c b025 a33c aed6 493d 20eb cebc
00000260: b23a ce3d 4007 793c 1229 763d 8a90 563d
00000270: abf5 623d 1095 b33c 90c7 d3ba 5143 a63c
00000280: 93c5 143d 8e5c 873c 20c7 893c 7e03 0bbb
00000290: 215d 763d fa67 95bc f8af 533d 2972 1dbd
000002a0: 5843 b83c 2dd5 6d3d 17af b43c 2dc6 2ebd
000002b0: f202 583d 125b 95bd 3acc d13b 6c9e 9ebd
000002c0: 1460 9c3b d62b aebd f200 03bc 3898 253d
000002d0: cd07 a3bb eab8 2d3c a829 b63d 5c39 ec3c
000002e0: ef33 d83d 619f 4b3d 4f15 8a3c 75d4 2e3b
000002f0: 3bd5 fb3c 3214 7fbd dcda 353d 9936 d13c
00000300: a311 8e3b ee88 1fbd 28e2 0ebc a2d8 843c
00000310: 86ec f03d d3a3 3839 490f 393d d8e5 073d
00000320: 7eba 583d f4a1 0f3c 28b5 b0bd 21ad 373d
00000330: c7b8 66bc f6e4 cdbc d998 943d 3c57 903c
00000340: 15a1 633d 98fa 75bc 8d8e cf3b c547 63bc
00000350: a936 653d 14c3 21bd 3206 e23d 4486 eb3c
00000360: da03 37bd f34f 813d 3ee1 433d 0f92 fb3c
00000370: 3e98 d03d d43b 20bd 9de3 26bc 377e 7c3d
00000380: f3b0 893d 128d a63d b7f2 2e3b f130 c0bd
00000390: bc8e 10bd 0759 a3bc 02bb cfbb 3f6b 46bd
000003a0: fa64 ae3d d6b4 8f3c 7306 7d3d 342b 863d
000003b0: 572a 903c 66c9 ccbc 8351 6a3d ba44 94bc
000003c0: 006d a8bb b7b1 ff3d 6f44 d03c 4e9a a43c
000003d0: dd3a e43d 068d ad3c 3883 7ebd 29cf cb3d
000003e0: a819 02bd ec23 823c 6d4e 823d ba23 463d
000003f0: 0b63 913d 9241 403d 79ea 603d ad60 ae3d

domain_discriminator.bias f4 [2]
-0.047264073 5.1872317e-05
00000000: f997 41bd 7a91 5938
