scTECTA_end/scTECTA_v2/80.pth (torch, 323524 bytes, 8 tensors)

conv1.bias f4 [256]
00000000: aa91 513a 6e7f 953b f615 e13b d05c ebbb
00000010: 2e59 543b 17f8 d43b c182 fc3b c057 f53b
00000020: 97d9 f7bb ed62 0c3c 6c0e be3b fdf0 87bb
00000030: 22a2 f73b af22 14bc 294a 9ebb 66f1 a03b
00000040: 50af de3b dbf1 b8bb 7818 83bb 1ec7 a33b
00000050: f454 05bc 0d25 d83b 4a9f ebbb 0c65 d93b
00000060: 7d74 8cba b5bd 133c 88f0 8abb 011d d43b
00000070: 9c39 ea3b 9fd1 e73b ac0e e6ba 0662 073c
00000080: afbe b13b 319f cd3b 44e8 fc3b 6050 573c
00000090: c237 bcbb 465b 8a3b 492f 4abb aa63 083c
000000a0: 8c69 553b 84c6 f33b 9631 3ebc 85c1 cb3b
000000b0: 66a8 f1bb a206 ffbb 8fdd cf3b 9702 f73a
000000c0: 5c21 8a3b 4283 19bc cc80 02bb cbda f6bb
000000d0: 66a1 f7bb 0323 a1bb 5d6b ef3b 798b 9f3a
000000e0: f20c 2b3b 727a 0c3b 1e5b bf3b 25cb 033c
000000f0: 85e6 f23b 31ea 053c f05e 163c 551e fabb
00000100: 7041 f43b f718 e73b 9278 3238 f880 a7bb
00000110: c750 393a 451d 8b3b 379b be3b 6d15 f7bb
00000120: df52 c5bb 799a e1bb 50a2 c03b cfd4 ebbb
00000130: ab61 fd3a fff9 e9ba 8ebc bdbb 4df4 91bb
00000140: e3ab f2bb 02ef 17bc e4fb 883b 1fd9 0d3c
00000150: 55ce 40bc 0f72 c13b 3243 163b 98f0 bb3b
00000160: 259e f6bb 1bb4 b13b 41aa 933b 53e9 83bb
00000170: 9e7c 0f3c 64e1 3a3b 423f 1bbc 3159 d8bb
00000180: 32dd de3b c772 49bc f77e db3a 15e0 81bb
00000190: 6fb0 a73b 6e71 203c ee38 a5bb cebe c73b
000001a0: 21bb 91bc f9fa f7bb 5fe3 e6bb c3bf cebb
000001b0: 25b3 1bbc 2e45 9a3b 7837 9fbb cc7a ddbb
000001c0: f2f7 023c 30e1 e03a 5ba6 37bb ad81 14bc
000001d0: ea4c e0bb 22a8 1ebc af62 043c 8d67 b23b
000001e0: cafb 26ba ceed fb3a 8ef8 0c3c 5e2b e3bb
000001f0: 7643 e43b 7852 d33b e2a0 f53b b469 a1bb
00000200: 9c80 b4bb 8444 d73b fa31 edbb e9f3 27bc
00000210: 9dbb ef3b 322b 2b3b 74de 19bc d14e 01bc
00000220: b88e 1bbc 16e8 b93b 4fe1 d3ba 04d5 ea3b
00000230: d7e9 e9bb 89b7 f8bb bb5a 03bc 7422 e33b
00000240: 1a4b f8bb 3e45 34bb 1008 10bc 974e 61ba
00000250: 26a3 cdbb 42bc fe3b c7d7 d7bb 374c 083c
00000260: b797 fd3b 3636 873c dbf6 c6bb efc3 ddbb
00000270: b6d8 073c 34ce 10bc a4a3 e5bb 8d02 f43b
00000280: 2acb eb3b d441 13bc f4bb f33b 6ad7 c6bb
00000290: dbed b13b 0fe1 edba 8aaa e53b 267b f43a
000002a0: a78c 1d3c 2797 363b 8e81 dcbb f63d e839
000002b0: e13b 06bc 5c30 e2bb 946d cc3b a68c b83b
000002c0: 54b3 a4bb 35c2 bfbb 9674 c9bb d071 f93b
000002d0: 2d07 943b 59eb a13b 3179 143c af96 5f3b
000002e0: 597f 8f3b bee0 48bc eec4 ecbb 47d3 fbbb
000002f0: b26f d2bb 7eb6 013c f6de 0cbc aef0 1abc
00000300: cdd8 a03b f21d c23b fab4 053c bf9c e53b
00000310: 4ba4 da3b a94e 023c 332d 01bc 482d c63b
00000320: 9deb 29bc 31dc af3b 84b4 d639 6926 133c
00000330: 4dde f7bb d2d1 ce3b c35f f8bb 0bab 073a
00000340: 8a9a ec3b 5c07 993b 2869 dabb d2ae 59bb
00000350: c8b0 fabb b83f 34b9 1842 1ebc 5d31 dd3b
00000360: 949e 813b d419 e03b 032e b13b 4bb8 a93b
00000370: 825f dc3b 3c04 4f3c 3544 e23b 1284 e7bb
00000380: e27e 06bc 5a38 0abc 5922 0fbc 243d 0f3c
00000390: c67a 0b3c 00d9 12bc 3d43 09bd f559 babb
000003a0: 5e9e 0b3c 27a3 d7bb 6897 983b 7ae5 c5bb
000003b0: 55fd af3b 643d 943b bbb6 083c 3f92 ec3b
000003c0: 9359 f23b ea53 9fbc b506 d13b 47cf 82bb
000003d0: 590e d2bb 8f23 043c 47d4 ba3b d4cb cf3b
000003e0: 0dca c43b c670 c23b acac 4cbc e907 51bb
000003f0: 577c d73b ec6a 01bc 6baf 183c bf71 293c
0.0007994423 0.00456231 0.006869073 -0.007182695 0.0032401788 0.006499301 0.007706017 0.0074872673
-0.0075637805 0.008568508 0.005800059 -0.004148601 0.0075571695 -0.009041472 -0.004830618 0.0049115894
0.006795801 -0.005644066 -0.0040007196 0.004998102 -0.00813793 0.0065962137 -0.0071906196 0.00663436
-0.0010715869 0.009017398 -0.0042400993 0.006473184 0.007147981 0.0070745493 -0.001755198 0.008263117
0.0054243426 0.0062750806 0.007718118 0.0131417215 -0.0057439515 0.0042223064 -0.0030850938 0.008324543
0.0032564132 0.0074394364 -0.011608502 0.0062181377 -0.007374811 -0.007782773 0.0063435505 0.0018845376
0.0042154025 -0.009369673 -0.0019913195 -0.0075334064 -0.007557082 -0.004917504 0.0073065 0.0012172303
0.0026100245 0.0021435288 0.0058397194 0.008044039 0.007412734 0.008173511 0.009177908 -0.0076330104
0.00745409 0.0070525366 4.2550797e-05 -0.00511181 0.00070692267 0.0042454326 0.005816843 -0.007540396
-0.006021842 -0.0068848697 0.005878724 -0.0071969996 0.0019331475 -0.0017850994 -0.0057902997 -0.0044541718
-0.0074057444 -0.0092732925 0.0041804183 0.008657723 -0.011767943 0.0059034894 0.0022928235 0.005735468
-0.0075261765 0.0054230816 0.00450638 -0.004025617 0.008757738 0.002851569 -0.009475531 -0.0066024293
0.006801271 -0.012295431 0.0016746212 -0.0039634802 0.005117468 0.009792669 -0.005042187 0.0060957437
-0.017789425 -0.00756776 -0.0070461477 -0.006309481 -0.009503161 0.004707954 -0.0048589073 -0.0067590233
0.007993685 0.0017156955 -0.002802274 -0.00906412 -0.0068451064 -0.009683641 0.008080169 0.005444473
-0.0006369917 0.0019220652 0.008604182 -0.00693266 0.00696605 0.00644904 0.0074959854 -0.004925931
-0.0055084955 0.006569447 -0.0072386237 -0.010251024 0.0073160664 0.0026118276 -0.009391416 -0.007892326
-0.009494476 0.0056734188 -0.001616517 0.0071665067 -0.0071384716 -0.0075902385 -0.008017237 0.0069315974
-0.007577312 -0.0027507092 -0.008790985 -0.00085947796 -0.0062755523 0.007773907 -0.006587002 0.008318952
0.007739033 0.016505342 -0.006071908 -0.006767742 0.008291414 -0.008838225 -0.007008033 0.007446593
0.00719585 -0.008987863 0.0074381772 -0.00606816 0.005429966 -0.0018148738 0.007008855 0.0018652424
0.009616054 0.002786109 -0.0067293113 0.00044296653 -0.008192987 -0.0069027375 0.0062386487 0.005632001
-0.0050262604 -0.0058520087 -0.0061479313 0.0076124445 0.004517457 0.0049413857 0.009062097 0.0034116914
0.0043791947 -0.012260614 -0.0072256243 -0.0076850983 -0.0064220065 0.007917045 -0.00859808 -0.009456797
0.004908657 0.00592398 0.008160824 0.007007211 0.0066724173 0.007953324 -0.0078843115 0.0060478784
-0.010371116 0.005366825 0.00040951755 0.008981326 -0.007564342 0.0063116336 -0.007579775 0.00051753287
0.007220571 0.0046700668 -0.0066653676 -0.0033215773 -0.0076504685 -0.00017189875 -0.009659313 0.0067502693
0.0039556716 0.0068390165 0.0054070964 0.00517944 0.0067252526 0.012635287 0.0069051036 -0.0070653046
-0.008208962 -0.008436287 -0.008736216 0.008742604 0.008513158 -0.00896287 -0.03351139 -0.0056869932
0.008521644 -0.0065807286 0.004656721 -0.0060393186 0.0053707757 0.00452392 0.008344348 0.0072195823
0.007395932 -0.019449193 0.0063789734 -0.0039919945 -0.006410402 0.008065118 0.005701575 0.006341437
0.0060055316 0.005933854 -0.01249234 -0.0031895584 0.0065761018 -0.007899027 0.009319167 0.010342061

conv1.lin.weight f4 [256, 50]
00000000: 8859 073e 2f7c d0bd dbcb f83d 1890 c9bd
00000010: 1cf1 ce3d bbf3 f4bd 31b1 0f3e 251d 33bc
00000020: 6db4 9bbd c120 963c 6b6c 5bbd b2a7 ec3d
00000030: 687d 05be b043 0e3e 6d93 3a3c 7ee5 5abd
00000040: 8367 bfbd 295b fdbd 2f9b 06bd 29a1 373d
00000050: bc3a fd3d 589e c43d 3119 bf39 be55 113d
00000060: ba2f 963d 4abb 4fbc 7fbf c33c d24b 7bbd
00000070: cacd 013d 2e2b e9bc 25fe 833d cacb f03d
00000080: d4b8 753d 1b8c b83d 5c26 863d 47e9 8b3d
00000090: af71 2b3d 5bd7 fabc 7fbc 7a3b c6f5 a4bd
000000a0: 1ac3 843d 1a55 9dbd 233e d1bd ec06 2fbd
000000b0: 7763 91bd 157a c23c cc18 b63c f328 96bc
000000c0: 9984 60bd 2e6f 403d b207 03be 3eb3 c8bd
000000d0: 2c54 7f3d 9101 34bb 89cc 3cbd 99f9 5e3d
000000e0: 2357 023e 4fde 433c e053 3abd 8005 833d
000000f0: 4016 a13d 3a19 85bd 3e8a bf3d e193 3bbd
00000100: 4720 9fbb 5eb2 fcbd 8bd0 c9bc 1670 f8bd
00000110: 4eb1 b8bd a87a 163d 291d 9f3d 15b5 d13d
00000120: 9765 16bd 040d 673c edc9 4cbd 8e31 ef3d
00000130: 3315 aabd eabf 2ebd 376d 2bbc f99e c73d
00000140: 6012 9d3d 0f52 5a3d f3b9 d83b e793 293d
00000150: 04d8 7d3b d77a d63b 25c7 973d 5c3b fdbd
00000160: 4fd5 9d3d fdbe 973d b919 423c 607a 823d
00000170: 964f f03d 14a2 e2bb 775b 96bd 4cea 62bd
00000180: 3a60 433c 45d2 a73d 58fc 7a3d 2d04 b0bd
00000190: ba3b a2bc c34c c0bd 8cd2 dabd b906 a6bd
000001a0: f83c 033b c46b fd3d 0916 d23b 6011 d63c
000001b0: 9a0f 7abc 7fd4 d8bd 2df0 dcbd fbbd 98bd
000001c0: 2ad4 babd bb70 90bd 4942 943d 1ff4 43bd
000001d0: 4b1f d23c c995 c4bd c932 3dbc df9b 53bc
000001e0: 3824 f73d 1e90 32bd b06c 843d 5d50 57bd
000001f0: 79e8 ec3d a20c a7bd 455c 4bbc 79cb d8bd
00000200: 3b30 9a3d 1f30 abbd 0f91 1c3d a4f4 bcbc
00000210: f3e7 c43d fd3a 9cbd a0ab 833b f912 50bd
00000220: e43c 76bc 42c8 edbd e260 213d 76de 14bd
00000230: d60a 00bc 80c6 4c3d 0605 b1bd 2bb5 43bd
00000240: 612d 523c 08cd a5bd bc96 2f3d 4e04 dfbc
00000250: da63 14bd da14 ccbd 1626 723d 7323 acbd
00000260: 89ce 6abd 289a f7bd 3f87 583c cdd0 cfbd
00000270: f6b2 703c a7be e7bd 00f7 27bd 6e68 b43d
00000280: a3d4 d2bd 057e 513d 69a1 d13c 3206 993d
00000290: aa06 0e3d fe1e e33d 49ab c6bd c50d b53c
000002a0: fc47 393d 1866 87bd 0551 3c3d 94bf 3bba
000002b0: 18a8 b7bd fa77 a7bd fcba 5ebd b5a6 ccbd
000002c0: 91ae 36bd c93b 0ebc befb a13d 1a82 f3bd
000002d0: 8825 253d 7527 9f3d c56e a23d b55f be3d
000002e0: 2963 863c b04d e43d b413 96ba 632e f6bd
000002f0: 0f28 40bd 11b2 ac3d d681 b3bd 252a b63d
00000300: 0c66 52bd d80d f9bc d21e 6f3d fa9c 943d
00000310: 1232 f53b 01ee 203c 0cdc 11bd 4309 b0bd
00000320: 4f82 963d 8ea2 963d ad26 f23d a4f6 18bd
00000330: 9510 b93d b9fc 7b3d 6590 e73a cbf7 1a3e
00000340: e43f 2fbd 771b adbd 14b4 2bbd eac2 c93c
00000350: 57da 12bc 04e2 ca3c a608 213d 0894 023e
00000360: 92cd 9fbd cb02 2e3c 4b1d 2dbd e3d8 813d
00000370: 53d4 87bd e5af c53d e7b9 b1bd 49e5 c93d
00000380: ee93 5cbc 0c22 c2bc 2df4 ebbd 67a4 afbd
00000390: 7a4d 4cbd b3e2 d3bd 8acc df3d 9582 14bb
000003a0: ccf9 fc3c 9dc5 b4bd f986 edbb f9f1 153d
000003b0: 6130 733d f438 84bc fe71 cf3d ab04 39bd
000003c0: f0d2 dabc d3dc f0bd 359c de3c dcbb 813d
000003d0: 6fe2 873d 393c a53d 448c ffbb 62b1 6bbc
000003e0: d510 c6bb 950a 883d 50c8 283d 067d a5bd
000003f0: bfc0 19be e5d9 1fbc d451 e63d 166b b43d
0.13217747 -0.10179936 0.12148257 -0.09841937 0.10104582 -0.119605504 0.14032437 -0.010932242
-0.07602773 0.018326165 -0.053570192 0.11555423 -0.1303612 0.13893008 0.011387688 -0.053441517
-0.09345915 -0.12370903 -0.03286284 0.04483143 0.12364718 0.09600514 0.00036449128 0.03548216
0.07333322 -0.012678931 0.023895023 -0.061351605 0.031690396 -0.028462972 0.064449586 0.1175762
0.05999072 0.09011098 0.06550285 0.068316035 0.041856464 -0.030620268 0.0038259325 -0.0805469
0.06482525 -0.076822475 -0.1021693 -0.04273121 -0.070990495 0.023739854 0.022228621 -0.018330073
-0.054813955 0.04698103 -0.12795904 -0.09799813 0.062336132 -0.0027466754 -0.046093497 0.054437254
0.12728553 0.011954858 -0.045490146 0.063975334 0.07865572 -0.06498952 0.093525395 -0.045795325
-0.0048561427 -0.12338708 -0.024635574 -0.12130754 -0.09018193 0.036738068 0.07769234 0.10239617
-0.036717977 0.014102224 -0.04999726 0.11679374 -0.08304825 -0.042663492 -0.010463051 0.097471185
0.076695204 0.053300913 0.0066139637 0.041400816 0.0038733492 0.0065454054 0.07411031 -0.123648375
0.07706701 0.07409475 0.011846953 0.063709974 0.1173393 -0.006916294 -0.07341664 -0.055399224
0.011924798 0.081944026 0.06127581 -0.085945465 -0.01980387 -0.09389641 -0.1068469 -0.08106751
0.0020025354 0.1237407 0.006411318 0.026131332 -0.015262509 -0.105874054 -0.107879974 -0.07458111
-0.09122498 -0.07052752 0.072392054 -0.047840234 0.025649687 -0.09598882 -0.011547753 -0.0129155805
0.12067455 -0.043594472 0.06466043 -0.052566875 0.11567778 -0.081567064 -0.0124121355 -0.10585684
0.075287305 -0.08358788 0.038224276 -0.023065872 0.09614553 -0.076284386 0.004018262 -0.050799344
-0.015029166 -0.11610462 0.039399035 -0.036344968 -0.0078150835 0.04999399 -0.08643536 -0.047780197
0.012828202 -0.08095747 0.04286836 -0.027223732 -0.03622804 -0.099649146 0.059118353 -0.08405199
-0.057325874 -0.1208995 0.013215839 -0.101472475 0.014691105 -0.11315661 -0.041007042 0.08808981
-0.102944635 0.051145572 0.025589662 0.07471885 0.034674324 0.11089896 -0.09700639 0.022101292
0.045234665 -0.0661127 0.045975704 -0.0007162031 -0.08967608 -0.081771806 -0.05437754 -0.09992734
-0.044600073 -0.008681246 0.07909344 -0.11890049 0.040318996 0.07771198 0.07931284 0.092955984
0.016404705 0.1114763 -0.0011449964 -0.12020566 -0.046913203 0.08432401 -0.087649986 0.08894757
-0.05136685 -0.030402109 0.058379002 0.072565034 0.0074827755 0.00982237 -0.035610244 -0.085955165
0.07349073 0.073552236 0.11823783 -0.03734459 0.09036366 0.061520312 0.0017666934 0.15133588
-0.04278554 -0.08452504 -0.041919783 0.024629075 -0.008963189 0.024765976 0.03931489 0.12751782
-0.07802881 0.010620783 -0.042264264 0.06340196 -0.066322945 0.0965269 -0.08678036 0.09858186
-0.013463004 -0.023697875 -0.11521182 -0.08576279 -0.049878575 -0.10345974 0.109276846 -0.002266084
0.030880831 -0.08826754 -0.007248756 0.036607716 0.05937231 -0.016140439 0.10129164 -0.045170467
-0.026711911 -0.11760869 0.027174095 0.063346595 0.06634986 0.08068127 -0.0077987034 -0.014385553
-0.006044487 0.06642643 0.041206658 -0.08080487 -0.15014933 -0.00975654 0.11246076 0.088094875

conv2.bias f4 [256]
00000000: 6d19 ecbb 8ab4 bfbb 1d1a d6bb 83dd d13b
00000010: 397b cc3b c01e c13b faa8 ccbb f063 e0bb
00000020: 51aa fb3b 7bad d43b 8dc5 f83b f616 d43b
00000030: fb9c fcbb cd12 eabb 5884 eebb d32b e2bb
00000040: b2a5 dd3b 0e5c ad3b 714b 1b3b 4a3f aebb
00000050: fced d2bb 1276 d83b 675f e8bb e581 03bc
00000060: 845f cc3b 50b3 fe3b 2974 053c f4cb e5bb
00000070: db5c 803b 76c4 f4bb 5909 cdbb e760 dfbb
00000080: d33b 423b 6160 de3b 2574 d5bb c1be fbbb
00000090: 199a b4bb 30ac c7bb 8124 6dbb eb20 9b3a
000000a0: b355 bc3b 543d c73b b8a9 d8bb b2c4 a1bb
000000b0: 31f2 973b a797 0d3b ca9e e9bb 06f2 d43b
000000c0: 805b cfbb 42f7 be3b c97d 6b3b f989 d1bb
000000d0: 7929 dbbb 9388 893b 1494 f63b d0dc bb3b
000000e0: d477 f8bb 896f d53b a5ea 3e3b e0d6 b73b
000000f0: a9f3 bb3b ccf5 f6bb f283 bb3b fc73 76bb
00000100: 211b de3b 0ea5 9e3b 1109 f8bb b0b7 c0bb
00000110: 2876 c43b aaaa 18bb 56dd cf3b 80b5 22bb
00000120: cbdb c4bb 4c93 50bb 1c0b 21bc b335 b43b
00000130: 6524 f9bb b891 d63b 973d 333b f7fb b9bb
00000140: a42f de3b cb04 eabb 60ea 0bbb 1175 d43b
00000150: 054b f8bb af28 d1bb 9159 a3ba b2ff af3b
00000160: 436b bc3b 1ab5 fa3b 9ef7 fabb 0d9c eabb
00000170: 501d 003c 6a03 be3b 7a63 e73b bb9b d2bb
00000180: c56d eebb 8559 d9bb 27c4 ccbb 8ec7 ba3b
00000190: 0d11 d93b 973e f7bb 6b60 e3bb 3d20 cebb
000001a0: cded df3b 7a68 c73b f554 a5bb 7e12 a53b
000001b0: 9097 c33b f445 dfbb cd5a f8bb bacf cdbb
000001c0: 847a 4aba 4a24 c6bb 446d 823b c422 863b
000001d0: fcf8 0b3c dcb5 cdbb 596b dc3b 77fa d83b
000001e0: b354 afbb ae94 c4bb 731d cabb 6f7c ee3b
000001f0: e875 f73b 6965 dbbb f738 5e3c c842 dcbb
00000200: 941f d2bb d96d ca3b b3ce c93b 805c f9b9
00000210: f520 c3bb 5f3c 3d3b ca2c edbb 7fc7 c43b
00000220: 1b87 cd3b ab6e eb3b 22e9 e3bb b4b0 19bb
00000230: b3f5 e4bb edc8 68bb 6775 813b 08a5 d4bb
00000240: 1843 d43b 241e dcbb 6468 a8bb be15 b23b
00000250: 679e d0bb cb58 c3bb dc83 2d3c ccda a8bb
00000260: 14b7 a6bb c56c edbb 396f d2bb 9bab b83b
00000270: 5fa4 02bc 3404 e7bb db96 cc3b edce b73b
00000280: 6bfa cabb 618c dd3b 5586 f53b e5ae 29bc
00000290: 6eca 3ebb 503b bd3b 90fc a9bb 736f d33b
000002a0: 50c0 f0bb 82d1 9a3b 56ee d0bb 1a08 b43b
000002b0: 2719 b83b 1d6d e0bb e333 f8bb b7a6 ecbb
000002c0: 2b3a 24bc c9f7 e4bb 0f05 8cb9 8701 dcbb
000002d0: 9e6c d2bb 2ff3 f6bb 5de2 bb3b 7572 84ba
000002e0: 8f98 0e3c 9213 153b 2122 823b dc8a 5ebb
000002f0: 940b d33b a71c bcbb 3ad1 cbbb c008 953b
00000300: 4437 d83b 7e89 b5bb 4c4b e33b 995d 203b
00000310: e5c8 39ba a9f9 bfbb f36d e8bb cf9c 9f3b
00000320: 07df dcbb 81f6 d1bb 149d e43b 27dc 54ba
00000330: 51a6 bebb a8da af3b efc3 d23b f107 743a
00000340: 9010 e4bb 9b51 d33b d4a1 e6bb b39d f83b
00000350: ae2c e2bb 98ef b63b 63a9 5b3a 7822 e33b
00000360: 08c2 c4bb 8790 b83b c7fc eabb b32b d03b
00000370: 080d f43b cf46 febb d182 053c fc70 8b3b
00000380: ccb0 ecbb 9b15 9c3b 121c f73b 36da d2bb
00000390: 1dcd 473b 7a33 f9bb 5fc1 edbb 2160 e03b
000003a0: be85 113c bb42 f8bb f5c6 dc3b 1a6b c4bb
000003b0: cb36 2ebb 60e5 d53b 4ba1 ccbb 9ffa cebb
000003c0: e71f d2bb 820c b23b 9061 e7bb aaa9 e5bb
000003d0: 7bf7 d43b 82e3 2c3b dd2d fdbb f6f4 e8bb
000003e0: 8f33 d03b f5ad d2bb 72ab c3bb bca8 cb3b
000003f0: 5433 e5bb 0666 d93b fc47 1db9 0a8a ea3b
-0.0072051794 -0.0058503794 -0.0065338747 0.00640458 0.006240275 0.0058935583 -0.0062457295 -0.006847851
0.0076802154 0.006490407 0.0075919093 0.0064724637 -0.007709143 -0.0071433545 -0.00727896 -0.006902197
0.006764137 0.005290515 0.002369609 -0.0053176032 -0.0064370614 0.006605872 -0.007091451 -0.008026575
0.0062369723 0.0077728406 0.0081453705 -0.0070128385 0.0039173192 -0.007469709 -0.006257218 -0.0068169716
0.0029637709 0.0067863916 -0.0065140896 -0.0076826517 -0.005511534 -0.0060935244 -0.0036185088 0.0011835372
0.005747521 0.006080309 -0.006612029 -0.004936778 0.0046370258 0.0021605284 -0.007129525 0.006498578
-0.0063280463 0.0058278153 0.0035933128 -0.0063946215 -0.0066882935 0.004197189 0.0075249765 0.00573311
-0.007582644 0.00651354 0.0029131558 0.005610332 0.0057358337 -0.0075366255 0.005722516 -0.0037605753
0.0067781364 0.0048414534 -0.00756944 -0.0058812723 0.0059955306 -0.0023295083 0.006343524 -0.002482742
-0.0060076467 -0.0031826077 -0.009829309 0.0054995655 -0.0076032155 0.0065481327 0.0027349943 -0.0056757885
0.0067805815 -0.0071416846 -0.0021349415 0.006483682 -0.0075773024 -0.0063830237 -0.0012462606 0.0053710574
0.0057500913 0.0076509835 -0.007658913 -0.007159716 0.007819489 0.005798747 0.007061419 -0.006427256
-0.007276269 -0.006632986 -0.006248969 0.0057000583 0.006624347 -0.007545303 -0.006938984 -0.006290464
0.006833768 0.0060854526 -0.005045528 0.005037605 0.0059689954 -0.006813759 -0.0075791837 -0.0062808665
-0.0007723945 -0.0060468065 0.0039803106 0.0040935 0.008543249 -0.006277783 0.006726664 0.0066216546
-0.005350673 -0.0059991693 -0.0061680614 0.0072780172 0.0075518973 -0.0066954386 0.013563386 -0.006721828
-0.006412456 0.0061776456 0.0061586737 -0.000475619 -0.0059548565 0.0028875095 -0.0072380053 0.006005227
0.0062722093 0.0071848235 -0.006955282 -0.002345127 -0.0069872974 -0.0035520152 0.003950763 -0.0064894
0.0064777248 -0.00671746 -0.0051393975 0.005434721 -0.0063665393 -0.0059615127 0.01059052 -0.0051530357
-0.0050877426 -0.0072456324 -0.00642195 0.0056356913 -0.007973759 -0.0070500616 0.0062435693 0.0056093843
-0.006194403 0.0067611192 0.0074928203 -0.0103566395 -0.0029112357 0.005774893 -0.0051875785 0.0064524948
-0.007347144 0.0047246823 -0.006376068 0.00549413 0.005618233 -0.006848945 -0.0075745448 -0.0072220224
-0.010023634 -0.006987546 -0.0002670665 -0.0067140493 -0.0064216396 -0.007536314 0.0057337717 -0.0010104912
0.008703365 0.002274726 0.0039713536 -0.0033957278 0.006440589 -0.0057407203 -0.00622001 0.004548162
0.006598385 -0.005540072 0.0069364663 0.002446985 -0.00070871256 -0.005858619 -0.007093185 0.004870988
-0.006740454 -0.0064075594 0.006976733 -0.00081199635 -0.0058181663 0.005366642 0.0064320485 0.00093090447
-0.006959982 0.006448937 -0.0070383344 0.0075871586 -0.006902299 0.005582761 0.00083794276 0.006931599
-0.0060045756 0.0056324634 -0.0071712467 0.0063528656 0.0074478425 -0.007759906 0.008148865 0.004255412
-0.0072232243 0.0047633178 0.007541188 -0.006434704 0.0030487247 -0.0076050134 -0.0072557176 0.006847397
0.008881984 -0.0075763143 0.0067375847 -0.005994213 -0.0026582952 0.006527588 -0.0062448136 -0.0063164975
-0.0064124945 0.00543362 -0.007061191 -0.007008751 0.0064992285 0.0026380722 -0.0077264146 -0.0071092797
0.0063538025 -0.0064294287 -0.0059713656 0.006215183 -0.006994644 0.0066344766 -0.00014999503 0.007157569

conv2.lin.weight f4 [256, 256]
00000000: 2067 e9bc ddf2 ccbd b730 453b 15c2 cdbd
00000010: 35ac dbbd 2146 333d 5f6d 96bd 0d29 92bd
00000020: 9efe 9fbd 25ac 743d 4e3b 9cbc 7814 683d
00000030: 23d9 ba3d f35a f9bb ce45 37bd 1950 0c3b
00000040: 42d9 543d 9793 4b3d 9dae c93d 9bd6 6e3d
00000050: 26f6 6f3c 1090 593d b0ed 79bd cf8a b13d
00000060: e9ca c23d 0cbf cebd 1d37 c6bd 9558 543c
00000070: 3f64 eb3a d27d 613d 2bb1 a93d 1d7b 19bd
00000080: 9605 44bd a4cd 8b3d 333a ec3c 91da 193d
00000090: 3e2a dfbd 473c c93a da23 183c 70dc 21bd
000000a0: 025b ccbc 4152 963d 5249 a3bd 1ab6 a9bd
000000b0: 9b40 c43d c269 653d b234 633d 2018 993d
000000c0: d445 2c3d e3d3 693d 00d2 c0bc acfd a73c
000000d0: e0f6 abbd f4ab 923d 69c9 99bd 9067 723d
000000e0: 4f11 05bd 4f7f 593d 9a14 623d b511 063c
000000f0: 540f 09bc 7a7f d6bd ad39 c03d 3828 bd3c
00000100: 8165 15bd 81bd 823d 6d4a d6bd 82c4 d7bd
00000110: 67ff e2bd b807 8abd fadb b93d 6cdb af3d
00000120: 769d 38bd 03a3 533d 50f2 0bbd 3691 66bd
00000130: 0fc6 623d 0dc5 c53d c0e7 ddbd a93f afbd
00000140: d6ba af3d b390 0ebc b788 7dbd 6434 61bd
00000150: 5ad0 3dbd 91eb bbbd 72b1 0a3d 15e7 a73d
00000160: c7ae 34bd 9dd0 233d 60dd 9d3d 3ac4 92bd
00000170: 5ebc 123d b274 573c 1010 cfbc 1be6 833a
00000180: 8fbc d0bc b8ef 89bd 67c7 9b3d 6743 a73d
00000190: 9ced a1bd 36b2 623d 5ce6 553d 62f8 a73d
000001a0: 88a2 debd 2fca a13d bfbe 373d 00e1 183c
000001b0: 59a1 5bbd 5dda eb3c 78fd 9bbd fdd0 cfbd
000001c0: d57f 4e3d e2cd e83c 5343 1bbc 2195 15bd
000001d0: 5dbf ba3d 1b83 c23d ac94 12bd b633 f0bc
000001e0: 012e 993d cf19 dfbd 1e96 a1bd 3bc3 98bd
000001f0: 0e2f 653d f314 e73b e6bc 9b3d b1b8 d6bd
00000200: 9069 82bd e907 0abb 9ff8 b0bd 0b88 b1bd
00000210: e4dd dcbd 16f8 853c 8816 803d 12be 813d
00000220: 89ae 913d e4c8 bdbd 21d2 663c 175c 813d
00000230: a64b 773d 8aba 47bc d76e 9f3d ed3f 9c3d
00000240: b5d1 ac3c 7517 fc3c 98c1 603c 227b 10bd
00000250: f4bd 2cbd b56e 3ebd ed5e c3bd fae5 8a3d
00000260: 938e 02bb 02a0 953d 6dd4 c6bd 750d afbd
00000270: 8480 a43d 33d0 333b 7c7c 9dbd 5e6d 97bd
00000280: 06ac b43c f360 833d 2362 a53d 2679 d0bd
00000290: 21c9 bebd 96d6 1cbc 9786 28bd 8b9d e33b
000002a0: 6e40 cdbd 0ea2 dc3c 80d5 bdbd c83b a6bd
000002b0: 0934 b1bd c4ef 203d 2ab4 273c 25c9 24bd
000002c0: 1f0f 623d 8589 433d c445 1abd 15bd 053d
000002d0: d670 c6bd 6206 a73d d568 9a3d e59d 60bd
000002e0: fad6 30bd ec9f 7d3c 432f a43d 4ab9 aebd
000002f0: 3893 aa3d 9f40 373d fa48 af3c 3975 84bd
00000300: 956c dabd 2bb4 ae3d 9a53 083d 54ea 2dbd
00000310: e34b 6c3c 5b33 873d 3457 8bbd 2284 dbbd
00000320: 86fd 4fbc d620 6c3d c1bf 34bd bb6e b4bc
00000330: 89c6 1b3b 5a80 90bd da84 02bd 4054 74bd
00000340: 9403 bfbd 33a8 71bd b5f0 ab3b 9dc7 1b3d
00000350: 73d7 903b 1bbd 40bd c3df 6bbd 54c5 773d
00000360: 3856 79bd cb13 eabb 46ed b6bc fa6d 43bd
00000370: fe71 3a3d 10b4 adbd 7b9f 77bd a69f 9cbd
00000380: 8184 abbd aeb6 ccbc 0083 c83c 1813 713d
00000390: 7791 b3bd 5db1 873d cf9a ce3b e42f 80bb
000003a0: 8d52 723d 956c 2abd 32b0 b7bd 8d11 cf3c
000003b0: 9555 8f3c 24e3 463d dc44 6fbd 8aa1 8dbc
000003c0: d966 993d 6b19 a23d e35d 793d cda3 cbbc
000003d0: 5f2c b23d 0d74 8b3d dbb0 6b3d 7d59 e33c
000003e0: 4595 443c 1962 0e3d 03d9 c33d 0f9d 03bc
000003f0: 11cc 253d 7b7f 8cbd 56a5 26bd f8a9 3d3d
-0.028491557 -0.1000726 0.003008885 -0.10046784 -0.10726205 0.043768052 -0.0734508 -0.07136736
-0.07812236 0.059734482 -0.019071247 0.056660146 0.09123447 -0.007609719 -0.044744305 0.0021410047
0.051965006 0.0497013 0.09847758 0.058310132 0.014646089 0.053115904 -0.061017692 0.08669054
0.09511358 -0.10095033 -0.09678481 0.012960573 0.0017958953 0.055051632 0.08285745 -0.037470926
-0.04785689 0.06826332 0.028836345 0.037561957 -0.10896729 0.0015353047 0.009285891 -0.039516866
-0.02494574 0.073399074 -0.07972969 -0.08286686 0.09582635 0.05600906 0.055470176 0.074753046
0.04205878 0.057086837 -0.023537636 0.020506702 -0.08396697 0.07161704 -0.07509119 0.059180796
-0.03248721 0.053099927 0.05519543 0.008182933 -0.008365471 -0.10473533 0.09386001 0.023090467
-0.036473755 0.06383801 -0.10463414 -0.10535528 -0.110838704 -0.067397535 0.0907516 0.08586773
-0.04507204 0.051669132 -0.034166634 -0.056290828 0.055364665 0.09656725 -0.108352184 -0.08557064
0.08580558 -0.008701491 -0.06189796 -0.054981604 -0.046341278 -0.0917579 0.03386063 0.08198372
-0.044111993 0.03999387 0.077082396 -0.071663335 0.035824172 0.013150381 -0.025276214 0.0010063084
-0.025480537 -0.06735176 0.07606392 0.08167153 -0.079066485 0.055345736 0.05222164 0.08201672
-0.10870844 0.078998916 0.044859644 0.009330988 -0.05362067 0.028790647 -0.07616705 -0.10147283
0.05041488 0.028418485 -0.009476501 -0.036519174 0.09118531 0.09497663 -0.035786316 -0.029321533
0.07479478 -0.108935945 -0.07889961 -0.07459112 0.055953078 0.007052058 0.07604389 -0.10484446
-0.06367791 -0.0021061844 -0.08641171 -0.08668526 -0.1078451 0.016353648 0.062542975 0.06335081
0.07113368 -0.092668325 0.014088185 0.06316393 0.06037488 -0.0121904705 0.07784813 0.076293804
0.02109609 0.030772904 0.013718031 -0.03527368 -0.04217334 -0.046492297 -0.0953959 0.06782146
-0.0019921407 0.0730591 -0.09708486 -0.085474886 0.08032325 0.0027437329 -0.07689759 -0.07393907
0.022054683 0.06414976 0.08075359 -0.10179357 -0.09315706 -0.009572646 -0.04114398 0.006946271
-0.100220546 0.026932742 -0.092692375 -0.08116871 -0.08652503 0.03929116 0.010235826 -0.04023089
0.0551902 0.04773857 -0.03766419 0.032651026 -0.096894905 0.08155514 0.075395264 -0.05483808
-0.043173768 0.015480023 0.08016827 -0.08531435 0.08328861 0.04473936 0.021397103 -0.06467671
-0.10665242 0.08530458 0.033282854 -0.0424598 0.01442239 0.06601592 -0.06803742 -0.10718562
-0.012694722 0.057648502 -0.044128183 -0.022025457 0.002376946 -0.07055731 -0.03186498 -0.05965066
-0.09326854 -0.058998298 0.0052472004 0.038032163 0.004420215 -0.047055345 -0.057586443 0.06049092
-0.06087324 -0.007143473 -0.022329938 -0.047712304 0.045518868 -0.0848161 -0.060454827 -0.07647638
-0.083748825 -0.024989452 0.024476528 0.0588561 -0.087679796 0.06625626 0.0063050757 -0.003911959
0.059160758 -0.04160746 -0.089691535 0.025276924 0.017496863 0.048556462 -0.05841528 -0.017288942
0.0749032 0.07915004 0.060880553 -0.02485838 0.08699869 0.06809244 0.05754171 0.027752632
0.011998479 0.034761522 0.09562876 -0.008033051 0.040477816 -0.068602525 -0.04068502 0.046304673

cls.bias f4 [3]
00000000: 3fe2 db3b bfd2 d5bb 6560 e3bb
0.0067103202 -0.006525367 -0.0069389814

cls.lin.weight f4 [3, 256]
00000000: 11ed 67bc 249d b7bc 399c c7bc f238 153d
00000010: f047 d5bc f275 41bd 490e 1ebd a8a2 ffbb
00000020: 6fcb ac3c c811 b63d 1ed5 cb3d 7f45 8cbc
00000030: 619d dfbd 431d 66bd 7d79 02be 6c3c abbd
00000040: 033b f93d 9473 a53d 0483 4fbb a49a 80bd
00000050: 304c c6bc 16df 0f3e d98c 0abe dd36 11be
00000060: 00e0 f63c f0fc a13d d864 ea3d d81a f1bc
00000070: 346c e03d 6899 08be d825 6abb 653e 88bd
00000080: 71d5 be3d 50c9 883d 8744 afbb 0f20 e33c
00000090: fea6 fbbd 694f c6bd 8722 14bd 57a6 273d
000000a0: da85 db3d 9073 4ebd d2a4 f1bd 3da5 6b3d
000000b0: d2b9 3d3d fd48 93bd ce20 f3bd ee28 fd3d
000000c0: 3eb7 dbbd e12a 113b c8cb 0c3d 7201 0cbc
000000d0: 45b1 95bd 7010 b53d 47c8 f13d 5169 653d
000000e0: 7ed5 e4bd f2e1 063e fe43 303d 5438 003e
000000f0: deed b93d 5f31 fa3c 5f59 373d 43b2 04be
00000100: 3ac5 e23c 6406 313d 59ab 1ebd 6e35 8ebd
00000110: 4076 5bbd e821 33bd 262f 17bc c64f f03b
00000120: bedc e5bd ee4a 9fbd 4052 a1bb 7fa8 0b3e
00000130: 7341 4f3d f752 2d3d fc7c 483d dd27 01be
00000140: dae2 953d 0d5b 0cbc 4471 a1bd d574 d63d
00000150: c73d fbbd 6fee 413d 119e b23b f22f 903d
00000160: 1d94 373d ffc7 173e 760c d7bd 980e cabd
00000170: 26c1 d73d 0638 a13d 5eff 713d 2b09 1ebd
00000180: 2adb a7bd e341 e6bd 1625 a0bd 9714 713d
00000190: bdcf 0d3e 18af 3d3b b0c9 bcbc 32d0 ecbc
000001a0: 9fbf 943d f071 b4bd 2538 973d 798f 123e
000001b0: 7ee5 b33d 79ae 9fbd d8ef 123d ec1f f8bd
000001c0: 892a ccba 18e4 13be f919 bc3d eaa6 233d
000001d0: bb91 a7bd da27 ddbc b8e4 263b a864 0d3e
000001e0: 7dc9 e7ba 2127 e83d 966a 6dbc 3cad e23d
000001f0: e36d dc3c 7cb0 a3bd f321 033e c98a 51bd
00000200: 9572 bfbd ab4e 38bd 19ae 7c3d 2e42 3d3b
00000210: fdad 5d3c ec97 263d da6b 95bd 7dd3 b83d
00000220: be62 6a3d d30c 0f3e 07a5 c6bd 730f 91bd
00000230: a21f 79bc 9164 6fbb 098d f33c d2d4 9fbb
00000240: b6e8 163e 99bc a6bd c863 62bd 57a1 143d
00000250: f123 dcbd 59b1 eabd 1660 ef3d 9685 b4bd
00000260: 4685 d3bd 2029 d2bd 0cf9 e6bd 2cdb bc3d
00000270: 31cc 81bc a263 fbbc d3de dc3d bf9b 8a3d
00000280: c6c3 11be 864a 5b3d fca6 203e 7c5c 023d
00000290: 5cee 843d a511 a53d 92e0 32bd e91e a23c
000002a0: 2e76 b8bd b525 a23c b686 acbd 4505 01bd
000002b0: f33a c3bd ead0 fabd e5e1 3ebd 1e88 19bd
000002c0: e6d3 223d 3f19 96bb c65f d63d 69f9 453d
000002d0: 6966 f63c fbca 62bd 447c 1b3e 367a 133e
000002e0: cac2 133d cb0b 7d3a 1717 363d 8937 73bc
000002f0: 0546 ae3d 2887 c93d a422 aa3d ce3c 023d
00000300: 0371 093d af91 a63b 5efa a33d 7f5c 0b3c
00000310: c750 003e 906a 383d 99a1 a83b b6c2 b33d
00000320: bfdf e7bd 3c5f 11be 797f 703d 778e 703c
00000330: 74f4 f6bc b8eb ac3d 7e2c 0f3d c71a d5bd
00000340: c1d5 aabd 8c4d da3d 8655 05be 44f0 073e
00000350: ae04 e2bc 225e 9c3d a17d 11bd 2047 093e
00000360: ecb6 01be c12d b63d cf76 b8bd 4b6d dd3d
00000370: 125f d2b9 b87f 15bc f0ad 1d3e a1aa 4dbd
00000380: 36d1 c7bd db80 153e 4864 0b3e c24d 0abd
00000390: ecfa 923a 1a6e 713d 6665 da3c 4ac5 113e
000003a0: b164 6ebd ea74 94bd 7abe fb3d 6336 00be
000003b0: 45e0 b33d 0fc4 b13d 4dc3 ac3c 2016 d7bb
000003c0: c86b febc 1df9 bebd 766e 0cbe ff40 babd
000003d0: efb1 1a3e 9c2a 23bd ef71 8dbd 7038 93bd
000003e0: ef90 993d aaa5 253d 56b4 21bd b9c6 b23d
000003f0: 1085 eabc dc38 fc3d a89a e83c a641 3bbb
-0.014155642 -0.022413798 -0.024366485 0.03643126 -0.026035279 -0.047231622 -0.038587842 -0.0078013726
0.021093098 0.0889011 0.09952758 -0.017122982 -0.109186895 -0.05618025 -0.12741657 -0.08361134
0.12169459 0.080786854 -0.0031663785 -0.06279495 -0.02420625 0.14049944 -0.13530292 -0.14181085
0.030136108 0.07909572 0.11445016 -0.029431745 0.10958138 -0.1333977 -0.0035728123 -0.06652526
0.093180545 0.06679022 -0.0053487453 0.027725248 -0.122877106 -0.09683115 -0.03616574 0.04093012
0.107188895 -0.050403178 -0.11799015 0.05753063 0.04631979 -0.07191656 -0.118714914 0.12361322
-0.1072831 0.0022150802 0.03437403 -0.008545266 -0.07309202 0.08841026 0.11805778 0.05600864
-0.11173533 0.13172129 0.043033592 0.12521487 0.09078573 0.03054112 0.044762965 -0.12958626
0.027681936 0.043218985 -0.03873763 -0.06943785 -0.05357957 -0.043733507 -0.00922755 0.0073337285
-0.11223744 -0.077779636 -0.004923135 0.13638495 0.050599527 0.04231545 0.04894732 -0.12612863
0.07318659 -0.00856663 -0.07882932 0.10471503 -0.122676425 0.04734653 0.005450972 0.07040395
0.044818986 0.14822386 -0.105004236 -0.09866065 0.10534887 0.07872014 0.059081428 -0.038582962
-0.08196099 -0.11243036 -0.078195736 0.058857527 0.13848777 0.0028943475 -0.02304539 -0.028907869
0.07263111 -0.08810794 0.073837556 0.14312543 0.087840065 -0.0779695 0.035873264 -0.121154636
-0.0015576641 -0.1444248 0.091846414 0.039954104 -0.08182093 -0.026996542 0.0025465917 0.13807929
-0.001768395 0.11335588 -0.014490744 0.11068198 0.026907867 -0.07992646 0.1280592 -0.051157746
-0.09348027 -0.0449969 0.06168947 0.0028878557 0.013530252 0.040672228 -0.07295962 0.09024713
0.057223074 0.13969736 -0.09699445 -0.07083025 -0.015205296 -0.0036528448 0.029730337 -0.004877665
0.1473721 -0.08141441 -0.05527094 0.03628668 -0.10749043 -0.11459608 0.11688249 -0.08814542
-0.10328154 -0.1026175 -0.11277971 0.09221491 -0.015844436 -0.030687157 0.10784688 0.067679875
-0.14234838 0.053537868 0.156887 0.03182648 0.06490776 0.08060006 -0.0436712 0.01979013
-0.09006916 0.01979337 -0.084241316 -0.031499166 -0.09532728 -0.122468784 -0.04660215 -0.037483327
0.039752863 -0.0045806463 0.10467486 0.04833356 0.03007813 -0.05536936 0.15184122 0.14402089
0.036074437 0.00096529414 0.044455614 -0.014844784 0.08509449 0.09840232 0.083073884 0.03179627
0.033555042 0.005083285 0.08006738 0.0085059395 0.12530814 0.0450235 0.005146217 0.087773725
-0.11321973 -0.14196485 0.058715317 0.014682404 -0.030145861 0.08443397 0.03495454 -0.10405498
-0.083415516 0.10659322 -0.13020906 0.13275248 -0.027590122 0.07635142 -0.0355202 0.13406038
-0.12667435 0.088954456 -0.09007036 0.108118616 -0.00040125154 -0.009124689 0.15398383 -0.050211553
-0.09756701 0.14599936 0.13612473 -0.033765562 0.0011213697 0.05894289 0.026659679 0.14235416
-0.058201496 -0.07248862 0.1229219 -0.12520747 0.087830104 0.08679973 0.02108922 -0.006563917
-0.031057253 -0.09324858 -0.13714013 -0.09094428 0.15106939 -0.039835557 -0.06906497 -0.07188499
0.07498347 0.040441193 -0.039478622 0.087293096 -0.028627902 0.123155326 0.028394058 -0.0028573065

domain_discriminator.weight f4 [2, 256]
00000000: e664 8f3d 3e12 95bd 66dc 9bba 4ee4 1e3b
00000010: c340 2f3d f3d9 8139 2f7f f2bc cdab f8bc
00000020: 964c c6bd e0b6 973d dc19 0b3d 2c91 4ebd
00000030: 9035 443a 1db3 19bb 44f3 8739 d207 f93b
00000040: ffea 86bd c26a 40bc d70e 29bc 4274 92bd
00000050: f778 ae3d 457b b4bc 7ce7 813c 5b55 933d
00000060: b18c bf3d 8b77 aabd 4efb 8bba b57b 2b3d
00000070: affc 333c b0c0 ef3c 59e9 5b3d a5f0 633d
00000080: 2207 47bc a7d6 213d 92cf 9ebc 06fd 513d
00000090: 3565 353d bc71 cb3c 91d6 133d 13f0 31bd
000000a0: 1c63 b33c 31b9 14bd 41c4 1c3d 6f1e c13c
000000b0: b48d 7d3c 05a3 bbbc 549c 933b a9e3 69bc
000000c0: b084 7bbd bc51 81bd bb37 15bd 57c2 62bd
000000d0: 43d2 293d 5e77 6d3d 8800 f63c f4dd 40bd
000000e0: 7482 253b d9bf 2cbd a71e 883c fb54 81ba
000000f0: 479b 20bc 5aa6 9e3d ec3d d03b 2d79 223c
00000100: cff0 a63d 0d9e 933c e6aa a93d 3701 c93d
00000110: 9eab c3bc 7701 a7bc 093f a1bd 6ea9 a6bc
00000120: a80b 8f3c c2e2 ac3d 4d4d b83a d366 923c
00000130: 83b3 0c3c d585 953c 671d a53d d25b 03bd
00000140: 8354 533c 50a0 1f3d a6fc a43c 80e8 afbc
00000150: 7da1 fb3a 0531 9f3c 177a e33c 9c85 c0bd
00000160: 9416 1a3d 33ab 90bd 81c1 cf3d 4e21 d63d
00000170: 9067 313d 0285 eb3c 367e c5bd d059 183d
00000180: abe8 ad3d 2592 493d 0dcd fd3c 4042 afba
00000190: bd28 a23c c6b4 8a3d 6a49 a23c 567b 153d
000001a0: 7950 ab3d 555c 18bd 452f b53c 7319 b83d
000001b0: ab57 8f3d 6e54 80bd e93a f73c d432 86bd
000001c0: 20ee b8bc a8ba 563c 6e96 6b3c 1981 9dbd
000001d0: 0f5b 5bbc a9f5 ddbd 1eb2 ebbb 89e5 033d
000001e0: 3abb 44ba 1232 80bd b7bc 8b3d 06fd 1a3d
000001f0: 7f24 1f3b 77c1 e439 83ce 76bc a821 80bc
00000200: 028d f4bb 4866 8d3d 7d31 bf3d 420b c63b
00000210: cd93 b33c 379f 993d ad8e 003e bba5 01bd
00000220: 4b0e bf3c 695a 02bd 5a2e 7d3c 165a 5ebc
00000230: ea1d 9bbd ea2e 98bb 4bf3 34bb 99d3 a53c
00000240: 5f1c bebd bdb8 d2bc db22 72bb 7342 97bd
00000250: 6650 8dbc 7a9d 9f3c 298a 1a3d 8f03 d5bc
00000260: 6d58 1cbc 9063 23bc 0d26 643c 6072 a13c
00000270: 6608 c4bc 376a cf3a d562 0c3d d6de 6e3d
00000280: ca97 c7bb 977c ae3c a519 5ebd b3e3 803d
00000290: 93fd 053d 738e 90bc 7f29 fb3c 6b84 873d
000002a0: 2a84 3d3d e9a9 da3c 6214 8ebc cece 503d
000002b0: dc43 4ebd 9dde 22bd 08ed d43d 68d4 ad3d
000002c0: 273a 0d3d 5d94 693d 4681 063d fd68 7bbc
000002d0: 1796 52bd 00ec b7bc 40ac d2bd 0c98 e63d
000002e0: 91af 5abc 23fc e9bc 4a7d 243c ec6c 1a3d
000002f0: 4833 a9bb 2e84 d13a cbf8 ca3d 2603 6e3d
00000300: 359d e73c 7bb0 833d 6738 993c dc3f 903d
00000310: a4fd e33d 5fdb 0a3d 316a 4c3d 5c24 bb3d
00000320: 21e4 87bd 5b20 133d 112c f5bd 18c2 133d
00000330: dd24 1eba 6e36 2e3d 6764 2ebd a943 95bc
00000340: 3dd4 2f3d 3104 bebd da14 e1bb f2fc c53a
00000350: 769c 003d 0216 f0bb 1bd7 953c b9ef 0fbd
00000360: 105e ce3c f438 ab3c aa23 4e3d 7cae 81bc
00000370: 19d3 78ba 62cc e3bc 24f6 2dbd 302d ca3d
00000380: b0fc b13c eaa1 4e3d 4ad3 b53c 38e7 acbc
00000390: 5b30 13bd 5e3d 843d d6de 233c 7e93 edbc
000003a0: 611e 373b b79d 3839 a4e4 683d 51da c2bc
000003b0: fa12 d13c 855e 3dbc 8a5e a43d d143 4abd
000003c0: 74f0 23bc 33dd 553d b751 c1bd d6e4 80bb
000003d0: 92fe 9d3d 3071 aa3d 77ed 983d 071f 493d
000003e0: 7962 093d 0d7e 283d 6aee 4a3d a204 023d
000003f0: 9e86 cd3d f11a 643d 8ce4 013e 0806 18bd
0.07001667 -0.0727887 -0.0011891245 0.0024244967 0.04278637 0.00024767182 -0.029601661 -0.030355358
-0.09682576 0.074079275 0.03396021 -0.050431415 0.0007484788 -0.0023452707 0.00025930454 0.007599809
-0.06587791 -0.011744203 -0.0103184795 -0.07151081 0.08519166 -0.022031436 0.01585745 0.07194015
0.09353007 -0.08323582 -0.0010679753 0.041866023 0.010985537 0.029266685 0.053689335 0.05564942
-0.012147697 0.03951135 -0.019386087 0.051266693 0.04428597 0.024834506 0.0360933 -0.043441843
0.021897845 -0.036309425 0.0382731 0.023574082 0.015475679 -0.022904882 0.0045047197 -0.01427547
-0.061405838 -0.06314418 -0.0364301 -0.05536112 0.041460287 0.057975166 0.03002955 -0.04708667
0.0025254758 -0.042175148 0.016616179 -0.0009867245 -0.009802646 0.07746573 0.006355038 0.009916586
0.08151399 0.0180197 0.082845494 0.09814685 -0.023885544 -0.02038644 -0.07873351 -0.020344462
0.017461613 0.08441688 0.0014061123 0.017871296 0.008587721 0.018252293 0.08062249 -0.03206999
0.012898567 0.038971245 0.020140003 -0.02147317 0.0019197908 0.019432554 0.027768178 -0.09400484
0.03761919 -0.07063904 0.1014433 0.10455571 0.043311656 0.028749947 -0.096432135 0.037195027
0.084916435 0.04921164 0.030981565 -0.0013371184 0.019794816 0.06772761 0.019810397 0.036494575
0.08364958 -0.03719743 0.022117266 0.08989229 0.06999143 -0.06266104 0.030179458 -0.065526634
-0.022574484 0.013106026 0.014379127 -0.07690639 -0.013388409 -0.108378716 -0.007192864 0.032201324
-0.00075047056 -0.0625955 0.06823104 0.03783896 0.0024283228 0.0004363169 -0.015063885 -0.015641049
-0.0074630985 0.06904274 0.09335611 0.0060438225 0.021921063 0.07501071 0.12554426 -0.031652194
0.023322245 -0.031824503 0.015452946 -0.013571283 -0.07574065 -0.0046442645 -0.0027610834 0.0202425
-0.09282755 -0.025722856 -0.0036947045 -0.07385721 -0.017250251 0.01948427 0.037729416 -0.026002673
-0.009542567 -0.009972468 0.013925088 0.019707859 -0.023929786 0.0015824501 0.03427394 0.05831798
-0.0060910927 0.021299643 -0.054223675 0.0629343 0.03271253 -0.01764605 0.030659435 0.066170536
0.04626862 0.026692348 -0.017343704 0.050978474 -0.050357684 -0.03976308 0.103967726 0.08487779
0.034479287 0.057026256 0.03283813 -0.015344855 -0.051412668 -0.0224514 -0.1028676 0.112594694
-0.013347522 -0.028562611 0.010039637 0.037701532 -0.005163584 0.0015984827 0.09910735 0.05810847
0.028273204 0.06430145 0.018703653 0.0704343 0.111323625 0.033900615 0.04990596 0.091377944
-0.06635309 0.03591953 -0.119712956 0.036073774 -0.0006032715 0.042532377 -0.04257622 -0.01822074
0.042927016 -0.09278143 -0.006868941 0.0015105291 0.031399213 -0.0073268423 0.018291047 -0.035140727
0.025191337 0.02090118 0.05032698 -0.015830271 -0.0009491905 -0.027807418 -0.042471066 0.098719
0.021726936 0.050447382 0.022195477 -0.021106347 -0.035934787 0.06457017 0.010001859 -0.029000994
0.0027941691 0.00017606361 0.056858674 -0.023785742 0.025521744 -0.01155818 0.080258444 -0.04938108
-0.010006059 0.052212905 -0.09439414 -0.0039335294 0.07714571 0.0832237 0.07467168 0.049101856
0.033541176 0.041135836 0.049543776 0.0317427 0.10035442 0.055689756 0.1268484 -0.037115127

domain_discriminator.bias f4 [2]
00000000: 51dd 1dbd 6f03 8e3d
-0.038541142 0.06934249
